10-3-20/model 2/_classifier_LSTM_android2_2.tflite (tflite, 461064 bytes, 23 tensors)

sequential/dense/BiasAdd/ReadVariableOp f4 [32]
0	0x3d369a37	0.044580664
1	0x3cf22cb2	0.029562328
2	0x3dafda19	0.08586521
3	0x3d6770b8	0.05650398
4	0x3d86aaaa	0.0657552
5	0x3c9ea85c	0.01936739
6	0xbdcd9c33	-0.10039558
7	0x3d826df8	0.06368631
8	0xbd94d23e	-0.07266663
9	0xbd708763	-0.058722865
10	0xbd6da8a5	-0.05802216
11	0xbda7a30c	-0.081853956
12	0x3d15972c	0.03652112
13	0x3d924cca	0.071435526
14	0xbcbf2804	-0.02333451
15	0xbd94e8d7	-0.07270973
16	0xbca27f91	-0.019836219
17	0x3c8a3948	0.016873017
18	0x3d6afb09	0.057368312
19	0x3c584190	0.013199225
20	0xbcad8ce8	-0.021185353
21	0x3d478b79	0.048716996
22	0xbaee22ad	-0.0018168293
23	0xbd2b94e3	-0.041890036
24	0x3c934636	0.017977815
25	0x3d508904	0.05091192
26	0xbc2cdd6a	-0.010550836
27	0xbd0618af	-0.032738384
28	0x3da8e655	0.08247057
29	0x3d2ead35	0.04264565
30	0xbcdee84c	-0.027210377
31	0xbcc370f5	-0.023857573

sequential/dense_1/BiasAdd/ReadVariableOp f4 [16]
0	0x3d76a82a	0.060218967
1	0xbcbbde89	-0.022933261
2	0xbc801c55	-0.01563851
3	0x3d6fd45f	0.058552142
4	0x3dc2c1e2	0.095096365
5	0x3c415d1c	0.011801984
6	0x3dc3599f	0.09538578
7	0x3d943b87	0.072379164
8	0x3db69d7d	0.08916757
9	0xbb070ac5	-0.0020605784
10	0x3d26e305	0.040743846
11	0xbd0f227d	-0.034945
12	0xbcadb233	-0.021203136
13	0xbd1809fa	-0.03711889
14	0xbd0fcfd9	-0.03511033
15	0xba86658b	-0.0010253651

sequential/dense_2/BiasAdd/ReadVariableOp f4 [8]
0	0x3ccd2aed	0.025044883
1	0x3c2f1ef5	0.010688533
2	0x3dc013d9	0.09378786
3	0x3d0cca59	0.03437266
4	0x3b635b7e	0.0034691985
5	0xbd27ae7e	-0.040937893
6	0x3ce6b9a0	0.028164685
7	0xbcfb853d	-0.030703181

sequential/dense_3/BiasAdd/ReadVariableOp f4 [4]
0	0xbbac525c	-0.0052588414
1	0xbd41f458	-0.047352165
2	0xbc68100e	-0.014163984
3	0xbce76d80	-0.028250456

sequential/dense_4/BiasAdd/ReadVariableOp f4 [2]
0	0x40c6b66d	6.209769
1	0xc0c6ae25	-6.208758

sequential/embedding/embedding_lookup/36722 f4 [5000, 20]
0	0x3dbb3959	0.091417976
1	0x3e0b5927	0.13608228
2	0x3e0cbaab	0.13743083
3	0xbe13bd61	-0.14427711
4	0x3e3b3438	0.18281639
5	0xbe0b394f	-0.1359608
6	0x3e12b18e	0.14325544
7	0xbe074f68	-0.13213885
8	0x3e4ccbc0	0.199996
9	0x3e31bbb1	0.17356755
10	0x3e34110a	0.17584625
11	0xbe0fb9f2	-0.14035776
12	0xbd8cb516	-0.06870477
13	0x3df1b0a9	0.118012734
14	0xbe133490	-0.1437552
15	0x3df39a3f	0.118946545
16	0x3d4ea104	0.050446525
17	0xbde2e245	-0.11078314
18	0x3e0b7a11	0.13620783
19	0xbe0b1c36	-0.1358498
20	0xbc813d71	-0.015776368
21	0x3c9d4516	0.019197982
22	0xbd73ac3c	-0.059490427
23	0x3df04dbe	0.11733578
24	0xbdb1a5ef	-0.086742274
25	0x3d15638e	0.036471896
26	0xbcdd98f1	-0.027050467
27	0x3d2fd0d4	0.042923763
28	0xbd262ddb	-0.040571075
29	0xbb65d07d	-0.0035066896
30	0xbc8220a6	-0.015884709
31	0x3c96f9c7	0.01842965
32	0x3e066e3a	0.13127986
33	0xbdd125e6	-0.10212307
34	0x3d8dac3d	0.069176175
35	0xbd6c5db3	-0.057706546
36	0xbc916601	-0.017748835
37	0x3bb6b7c1	0.0055761044
38	0xbb78474c	-0.0037884293
39	0x3dee2b1e	0.11629318
40	0xbdf003f9	-0.11719508
41	0xbc58748e	-0.013211383
42	0xbc3a595f	-0.011373847
43	0x3c116be6	0.008875823
44	0xbd97287d	-0.073807694
45	0x3d539eaa	0.051664986
46	0xbd794cd3	-0.06086428
47	0x3df85064	0.12124708
48	0xbdb82b4c	-0.08992633
49	0xbded8c9f	-0.11599087
50	0xbd7421a9	-0.059602413
51	0x3d57f62d	0.052725006
52	0x3dd05ea5	0.10174302
53	0xbd8e9dd7	-0.06963699
54	0x3c27aa72	0.010233508
55	0xbd99ed7a	-0.07515998
56	0xbdace5a8	-0.08442241
57	0x3bd55659	0.0065105376
58	0xbdf55e07	-0.11980825
59	0x3d935700	0.07194328
60	0xbe2092af	-0.15680955
61	0xbd83a8f5	-0.0642871
62	0xbe2a1359	-0.16608943
63	0x3dc34bb5	0.09535924
64	0xbe10ae9c	-0.14129108
65	0x3dfc3421	0.1231463
66	0xbda5df55	-0.08099238
67	0x3e04167e	0.12899205
68	0xbe0a45b8	-0.13503158
69	0xbddedcb5	-0.1088194
70	0xbdee7219	-0.11642856
71	0x3d867639	0.06565518
72	0x3e10f523	0.14156012
73	0xbe11d01c	-0.14239544
74	0x3e2f19fa	0.17099753
75	0xbdee6eaf	-0.11642205
76	0xbe03674b	-0.12832372
77	0x3d9b5930	0.075853705
78	0xbd9660de	-0.07342695
79	0x3d8a8a6b	0.067646824
80	0xbc6fb24d	-0.014629913
81	0xbc5f1b2c	-0.013617318
82	0xbd638ae5	-0.055552382
83	0xbce4e4f4	-0.027941205
84	0xbc81e5ec	-0.015856706
85	0x3dcb435c	0.09924957
86	0x3d80b019	0.06283588
87	0xbd068156	-0.032838188
88	0xbdbcb7f1	-0.092147715
89	0xbe05d8c0	-0.13070965
90	0xbd130cd0	-0.03590089
91	0xbc81a4f3	-0.015825724
92	0xbbf25d99	-0.0073964116
93	0xbbe115f9	-0.0068690744
94	0x3d365e56	0.04452356
95	0xbd8ea7de	-0.06965612
96	0xbd02429e	-0.031801812
97	0x3d5b801a	0.053588964
98	0x3ce58487	0.028017296
99	0x3d044992	0.032296725
100	0x3dc29870	0.095017314
101	0x3de857bf	0.11344861
102	0x3dbb7f79	0.09155173
103	0xbd858225	-0.06518964
104	0x3dcc7920	0.0998404
105	0xbdabfd37	-0.08397906
106	0x3d94f0b8	0.07272476
107	0xbd6a228a	-0.057161845
108	0x3d1b214c	0.03787355
109	0x3d7542b2	0.05987806
110	0x3d9a0927	0.07521277
111	0xbd354ba8	-0.044261605
112	0xbdb2d441	-0.087318905
113	0x3d7a77ea	0.061149515
114	0xbd0b6054	-0.034027413
115	0x3dd5cbb9	0.10439248
116	0xbbf6b0f6	-0.0075284196
117	0x3a14760a	0.0005663341
118	0x3c6710d2	0.014103131
119	0xbcaf4c69	-0.02139874
120	0xbd809436	-0.06278269
121	0xbb926e4f	-0.004468716
122	0xbda995fa	-0.08280559
123	0xbd187ab9	-0.037226412
124	0x3c85e2fc	0.016343586
125	0xbcb31158	-0.021858856
126	0xbd248248	-0.04016331
127	0x3b2e3b49	0.002658563
128	0xbd2855b7	-0.04109737
129	0x3d565af7	0.052332845
130	0xbcef63a5	-0.029222319
131	0xbd32934a	-0.043597497
132	0xbdb49728	-0.08817893
133	0x3b74f574	0.0037377747
134	0xbd00f8ac	-0.031487152
135	0x3d06ccfd	0.032910336
136	0x3d7fe415	0.062473375
137	0x3d06f448	0.03294781
138	0x3db28151	0.087160714
139	0xbd871c4a	-0.065971926
140	0xbe229e9c	-0.15880817
141	0xbdeb93ce	-0.11502801
142	0xbdc0f686	-0.094220206
143	0x3b544d71	0.0032394791
144	0xbd702dfe	-0.05863761
145	0x3d02e7e5	0.031959433
146	0xbe0b2405	-0.13587959
147	0x3dc243d4	0.094855934
148	0xbe4ba6f5	-0.19887908
149	0xbd8abf96	-0.06774823
150	0xbd504810	-0.050849974
151	0x3daea357	0.08527248
152	0x3e2bd942	0.16782096
153	0xbe1a845d	-0.15089555
154	0x3de111d5	0.10989729
155	0xbce860b0	-0.028366417
156	0xbde33ccb	-0.1109558
157	0x3e021597	0.12703548
158	0xbe0fa427	-0.14027463
159	0x3dce38e7	0.10069447
160	0xbd16bd05	-0.036801357
161	0x38a260ad	7.742769e-05
162	0xbc778bf4	-0.015109051
163	0x3ded44a4	0.11585358
164	0xbc969a60	-0.018384159
165	0x3da0f421	0.07859064
166	0xbd030b26	-0.031993054
167	0x3ce90610	0.028445274
168	0x3d775528	0.060383946
169	0xbd5740db	-0.052552085
170	0xbdc6b57e	-0.09702586
171	0xbcb38c4d	-0.021917487
172	0x3d0fb97b	0.035088997
173	0x3d4e8cad	0.050427128
174	0xbd8f12e2	-0.069860235
175	0xbd077f04	-0.033080116
176	0xbbcfe99c	-0.006344987
177	0x3d0b41b2	0.0339982
178	0xbe143d5a	-0.14476529
179	0xbc231826	-0.009954488
180	0x3b92976f	0.0044736187
181	0xbcaaa815	-0.0208321
182	0x3c49fa1b	0.012327696
183	0xbcd61f90	-0.026138097
184	0xbd6e3a2f	-0.058160957
185	0x3cedb765	0.029018113
186	0xbdd17787	-0.10227876
187	0x3c8d64c1	0.017259957
188	0xbca8267f	-0.020526169
189	0xbca9ab4c	-0.020711564
190	0xbd553e20	-0.0520612
191	0x3d496366	0.04916706
192	0xbd61d4ed	-0.055134702
193	0x3d4651b0	0.048417747
194	0x3c456072	0.01204692
195	0xbda7af33	-0.081877135
196	0xbda2634a	-0.07929094
197	0x3c096e74	0.0083881505
198	0xbdaef905	-0.085435905
199	0xbd208d94	-0.03919752
200	0xbe6b3db7	-0.22972761
201	0xbe56f019	-0.20990027
202	0xbe45af85	-0.19305237
203	0x3e7a5461	0.2444625
204	0xbe41faf9	-0.18943395
205	0x3e39b41f	0.18135117
206	0xbe7d4b72	-0.24735811
207	0x3e6e864e	0.2329342
208	0xbe4ccb2d	-0.1999938
209	0xbe7f14df	-0.24910305
210	0xbe52a9a7	-0.2057253
211	0x3e275563	0.16341166
212	0x3e3deb36	0.18546757
213	0xbe70509b	-0.23468249
214	0x3e656f41	0.22405721
215	0xbe4e5789	-0.2015058
216	0xbe4e02d7	-0.20118271
217	0x3e7f8503	0.24953084
218	0xbe6b0c35	-0.22953875
219	0x3e845bdf	0.25851342
220	0x3e16105e	0.14654681
221	0x3d9f04da	0.07764597
222	0x3d035a5b	0.03206859
223	0xbd69994f	-0.057030972
224	0x3ccaefbd	0.02477252
225	0xbc602772	-0.0136812795
226	0x3d050a85	0.032480735
227	0xbe0cbf43	-0.13744836
228	0x3de20eed	0.11038003
229	0x3d267e81	0.040647987
230	0x3d7b0609	0.061285052
231	0xbde30184	-0.110842735
232	0xbd9e462b	-0.07728227
233	0x3d953cac	0.07286963
234	0xbd406385	-0.04696991
235	0x3e0adb6e	0.13560268
236	0x3d310dd1	0.043226067
237	0xbd8406f8	-0.06446642
238	0x3d28f956	0.04125341
239	0xbde84784	-0.113417655
240	0x3c33a0c2	0.010963621
241	0xbca2bc6a	-0.019865233
242	0xbae3c83d	-0.0017378401
243	0x3ccdd452	0.025125656
244	0xbd0a7509	-0.03380302
245	0x3d4b7f32	0.04968185
246	0xbdb7222c	-0.08942065
247	0xbc17fbcf	-0.009276344
248	0xbd8fc3d8	-0.07019776
249	0x3d1e913c	0.038712725
250	0xbd22d0e7	-0.039750006
251	0xbd2ae229	-0.04171959
252	0x3c135def	0.0089945635
253	0xbcfca832	-0.03084192
254	0x3b38246e	0.0028097886
255	0xbd4d63d4	-0.05014403

sequential/dense/MatMul f4 [32, 32]
0	0xbe1b3290	-0.15156007
1	0x3c858fd0	0.016303927
2	0x3e445346	0.19172391
3	0xbebac590	-0.36478853
4	0x3d9619f5	0.0732917
5	0xbebc80de	-0.36817068
6	0xbca9a9cc	-0.020710848
7	0xbe660f63	-0.22466807
8	0x3e6963fb	0.22792046
9	0xbe964245	-0.29347435
10	0x3ce2acd3	0.0276703
11	0xbd8b24d6	-0.06794135
12	0xbe3b2c7d	-0.1827869
13	0x3d995470	0.07486808
14	0xbe71c025	-0.23608454
15	0x3eb5fbd2	0.35543686
16	0xbe34b4d3	-0.17647104
17	0xbdf87335	-0.12131349
18	0x3e5395f1	0.20662667
19	0x3e57ff15	0.210934
20	0x3e931270	0.28725004
21	0x3eb88988	0.36042428
22	0xbe1d85ac	-0.15383023
23	0xbd99d7e9	-0.07511885
24	0xbeba894a	-0.36432868
25	0xbdfbe595	-0.12299649
26	0xbe2c5b77	-0.16831766
27	0x3d893d65	0.06701163
28	0x3e94cd85	0.2906305
29	0xbdcfa6f7	-0.10139268
30	0xbe78fc31	-0.24314953
31	0x3e2c5df5	0.16832717
32	0x3de71ed7	0.11285179
33	0xbeb425b6	-0.3518502
34	0xbe218b2f	-0.1577575
35	0xbe98c60f	-0.29838607
36	0x3ec84ebe	0.39122576
37	0xbcc63978	-0.024197325
38	0xbed2e288	-0.41188455
39	0x3e78bb6a	0.24290243
40	0xbe7ccec5	-0.24688251
41	0x3e4bae8c	0.19890803
42	0xbea36bca	-0.31918174
43	0x3e0356a7	0.12826024
44	0xbd6ad81f	-0.057335015
45	0xbe2d4958	-0.1692251
46	0xbe81b90c	-0.25336492
47	0xbef18aef	-0.4717631
48	0x3d3666de	0.044531696
49	0x3ef6d01f	0.4820566
50	0xbe88dbbc	-0.26730144
51	0x3e1d6186	0.15369233
52	0xbef5ef7c	-0.48034275
53	0xbc94297a	-0.018086184
54	0x3e8ed738	0.27898574
55	0xbe88b418	-0.266999
56	0xbe331905	-0.17490013
57	0x3ed5cbbb	0.41756997
58	0xbd814eab	-0.06313833
59	0xbef84da5	-0.48496738
60	0xbe837e98	-0.2568252
61	0xbe565128	-0.20929396
62	0x3e14ed37	0.14543615
63	0x3d3ece95	0.04658373
64	0xbe80efeb	-0.25183043
65	0xbc27ff15	-0.010253687
66	0x3c38e51a	0.011285091
67	0x3de610bf	0.11233663
68	0x3ec03679	0.3754156
69	0x3ceec5a4	0.029146977
70	0x3e5c86f9	0.21535863
71	0x3e986c2b	0.29770026
72	0x3de1ffd4	0.110351235
73	0x3ca8b19b	0.020592501
74	0x3d10406b	0.035217684
75	0xbccf6ec6	-0.025321376
76	0x3e8c92e7	0.27455828
77	0x3e965088	0.29358315
78	0xbe8eb340	-0.27871132
79	0x3e0ddfc0	0.13854885
80	0xbcbca231	-0.023026558
81	0xbe6bae82	-0.23015788
82	0xbd8f336a	-0.06992228
83	0xbe969b86	-0.2941553
84	0x3d9d496e	0.07680021
85	0xbd1a06db	-0.037604194
86	0x3d881356	0.06644313
87	0x3c7c5643	0.015401426
88	0xbe1f5a22	-0.15561727
89	0xbe2986d2	-0.16555336
90	0x3de71693	0.112836026
91	0x3db6242f	0.0889362
92	0xbe384cd5	-0.17998059
93	0x3d846d7e	0.064661965
94	0xbb4ae7e9	-0.0030960983
95	0x3d55d836	0.052208148
96	0xbd62d142	-0.055375345
97	0x3e9c4380	0.30520248
98	0x3ca87db1	0.020567747
99	0x3e2239bd	0.15842338
100	0x3ea49a22	0.32148844
101	0x3d7b4ec6	0.06135442
102	0xbd3d826b	-0.046266954
103	0xbe7557ba	-0.23959246
104	0xbe55d532	-0.20882109
105	0x3de92c51	0.11385406
106	0x3d04730e	0.032336287
107	0x3e6d9311	0.23200633
108	0x3e08211a	0.13293877
109	0x3d003048	0.031296045
110	0xbc447c9f	-0.011992603
111	0xbd7ca39e	-0.061679475
112	0xbe82d7ca	-0.2555526
113	0xbd4c3a90	-0.049860537
114	0xbe409151	-0.18805434
115	0x3e196c17	0.14982639
116	0x3e0a0854	0.1347974
117	0xbe8371be	-0.25672716
118	0xbe8925a1	-0.2678652
119	0x3b1eea55	0.002424856
120	0xbea82340	-0.32839394
121	0xbd04ce2b	-0.03242318
122	0xbdc176fb	-0.09446522
123	0x3ea029f2	0.31282002
124	0xbe1a2ba3	-0.15055709
125	0x3e1d75e2	0.15377
126	0xbe9a945b	-0.3019131
127	0xbe884f27	-0.26622888
128	0xbe064314	-0.13111526
129	0xbe5a5492	-0.21321324
130	0xbb9d6a3d	-0.0048039244
131	0xbeb53a7a	-0.35396177
132	0x3d961316	0.07327859
133	0xbdabb42e	-0.08383976
134	0xbe9ff9ab	-0.3124517
135	0x3eaf4ced	0.34238377
136	0xbedd8e18	-0.4327247
137	0x39b4c811	0.00034481336
138	0xbe8b7e55	-0.2724482
139	0xbe823f01	-0.25438693
140	0xbe9445c4	-0.28959477
141	0xbe36d862	-0.17855981
142	0xbe067460	-0.13130331
143	0x3cbb0d47	0.02283348
144	0x3e8b3b5e	0.2719373
145	0x3ec53b5b	0.38521847
146	0x3e46d5f0	0.19417548
147	0x3ec01fc3	0.37524232
148	0xbd383921	-0.044976357
149	0x3d2bae01	0.04191399
150	0x3e548faa	0.20757928
151	0xbe5e669b	-0.21718828
152	0xbc1025cc	-0.008798074
153	0x3ea0f799	0.31438902
154	0xbe332857	-0.17495857
155	0xbe30326c	-0.17206734
156	0x3e1b2bf5	0.15153487
157	0xbd3768e0	-0.04477775
158	0xbe1429cf	-0.14469074
159	0xbd094109	-0.033509288
160	0xbea60be0	-0.32430935
161	0xbed9bcba	-0.425268
162	0xbed377c7	-0.4130232
163	0xbe645724	-0.22298867
164	0x3e8858fa	0.26630384
165	0x3d342e01	0.043989185
166	0xbee25039	-0.4420183
167	0xbd5d8699	-0.05408344
168	0xbed2a015	-0.41137758
169	0x3eee7bb7	0.46578762
170	0xbee5c9a8	-0.44880414
171	0xbd7e5148	-0.062089235
172	0xbdbf5334	-0.093420416
173	0xbe11bfe1	-0.14233352
174	0xbedf4602	-0.436081
175	0xbe0e4488	-0.1389333
176	0x3e053073	0.13006763
177	0x3e97a267	0.2961609
178	0xbe8e8eff	-0.27843472
179	0x3c67cd5d	0.0141480835
180	0xbe7dc3cc	-0.24781722
181	0x3e943527	0.28946802
182	0x3ddb7124	0.10714939
183	0xbebc78f3	-0.36811027
184	0xbe3940e0	-0.18091154
185	0x3e4ade3a	0.19811335
186	0x3e0edb23	0.13950782
187	0xbef29227	-0.4737713
188	0xbe30c383	-0.17262082
189	0xbe30daba	-0.17270938
190	0x3e1b8667	0.15187989
191	0x3eb4c79e	0.35308546
192	0x3d9b5461	0.075844534
193	0xbda0574b	-0.0782915
194	0xbe352db5	-0.17693217
195	0xbe6e802c	-0.23291081
196	0x3e6d05d4	0.23146755
197	0xbc4016da	-0.011724198
198	0xbe4de609	-0.20107283
199	0x3e275cfc	0.16344064
200	0x3e3c8042	0.18408301
201	0x3e4e5cc7	0.20152579
202	0x3eac8602	0.3369599
203	0xbe824725	-0.25444904
204	0xbe1905db	-0.1494364
205	0xbb2c072f	-0.00262494
206	0xbe5aa028	-0.21350157
207	0xbc98d2e7	-0.018655254
208	0xbd4014bb	-0.04689477
209	0xbe377da8	-0.17919028
210	0xbe49a5dd	-0.19692178
211	0xbec52029	-0.385011
212	0x3e80f089	0.25183514
213	0x3c974629	0.018466072
214	0xbe4c1646	-0.19930372
215	0x3df67128	0.120333016
216	0x3df41aa8	0.11919147
217	0x3d590a3c	0.052988276
218	0x3ead0e19	0.33799818
219	0x3e18071b	0.1484646
220	0x3e7df415	0.24800141
221	0xbe05d1fa	-0.13068381
222	0xbe75022c	-0.2392661
223	0xbde75a0b	-0.11296471
224	0xbf07b2a8	-0.5300698
225	0xbe90d9f8	-0.28291297
226	0xbe515a2e	-0.20444557
227	0xbef030a3	-0.46912107
228	0x3e7733fd	0.24140926
229	0xbe880bee	-0.26571602
230	0xbe1da61c	-0.15395397
231	0xbdb9fe6c	-0.0908173
232	0xbeef4b3a	-0.4673708
233	0x3f1a3b35	0.6024659
234	0xbe05ecac	-0.13078564
235	0x3dfa3201	0.12216569
236	0xbdefd772	-0.11711015
237	0xbea54957	-0.32282516
238	0xbd8f55cc	-0.06998786
239	0xbe982937	-0.29718944
240	0x3d95bc40	0.073112965
241	0x3f1bc6ac	0.60850024
242	0xbe4c88e9	-0.19974102
243	0x3ecb268c	0.39677846
244	0xbf0b961d	-0.5452593
245	0x3edd5991	0.43232396
246	0x3eae117a	0.3399771
247	0xbcf74ba1	-0.03018743
248	0xbe3420f4	-0.17590696
249	0x3ce2db39	0.027692424
250	0xbf023374	-0.5085976
251	0xbe90dfab	-0.28295645
252	0xbeaf6a99	-0.34261015
253	0xbec77f77	-0.38964435
254	0x3b63299d	0.0034662255
255	0x3edec167	0.4350693

sequential/dense_1/MatMul f4 [16, 32]
0	0x3e27e851	0.16397215
1	0xbe0e4dcd	-0.13896866
2	0x3e7854b9	0.24251069
3	0x3d2d8599	0.042363737
4	0xbe0e9692	-0.13924626
5	0xbc6cbf95	-0.014449974
6	0xbc60d2a3	-0.013722095
7	0x3e0a0a0d	0.13480397
8	0xbea39bed	-0.319549
9	0xbea2819d	-0.31739512
10	0xbe538915	-0.20657761
11	0x3ebdca7d	0.3706855
12	0x3cb0d5ad	0.021586264
13	0x3e7796f1	0.24178673
14	0x3ed180bb	0.40918526
15	0x3e876f6b	0.26452193
16	0x3dd70e37	0.10500758
17	0xbcae7aa8	-0.021298721
18	0x3e876248	0.2644217
19	0xbe9e88d8	-0.30963778
20	0x3e63170b	0.22176759
21	0x3e9476cc	0.28996885
22	0x3b6e903d	0.003640189
23	0x3e8a752c	0.2704252
24	0x3e86de23	0.26341352
25	0xbe802190	-0.25025606
26	0x3e24c8bf	0.16092204
27	0xbdaf6442	-0.085640445
28	0xbd913018	-0.07089251
29	0x3e151167	0.1455742
30	0x3daf2543	0.08552029
31	0xbe549e4d	-0.20763512
32	0xbcd83010	-0.026390105
33	0xbdb0079d	-0.08595202
34	0xbe93d3bf	-0.28872487
35	0xbe65bf00	-0.22436142
36	0x3e03353f	0.1281328
37	0xbd7ec75b	-0.06220184
38	0x3e396029	0.18103088
39	0xbc018f9e	-0.007907776
40	0xbe280738	-0.16409004
41	0xbe8df8fd	-0.27729025
42	0xbbd46fab	-0.0064830384
43	0x3e6eb7b3	0.23312263
44	0xbcad9497	-0.021189017
45	0xbd55c83e	-0.05219292
46	0xbd3b66dd	-0.045752395
47	0x3e94965f	0.29020974
48	0xbd0c0837	-0.03418752
49	0xbe9abd3e	-0.30222505
50	0xbe8a0d2a	-0.26963168
51	0x3d140614	0.03613861
52	0xbd7f178d	-0.06227832
53	0x3e9ba2ae	0.30397552
54	0xbdab32c5	-0.08359293
55	0xbe4e3ab7	-0.20139585
56	0xbe950240	-0.2910328
57	0x3dc937a5	0.098250665
58	0x3d961bfa	0.07329555
59	0xbe386c93	-0.18010168
60	0xbe8ee595	-0.27909532
61	0x3db46a13	0.088092946
62	0xbcecff49	-0.028930323
63	0xbe7140a7	-0.23559819
64	0x3dc7a09f	0.09747433
65	0x3e1c4384	0.1526013
66	0xbdc75bfd	-0.09734342
67	0xbe7eff9e	-0.24902198
68	0xbe014a9d	-0.12626119
69	0xbe95ef78	-0.29284263
70	0x3e05fb3d	0.13084121
71	0x3ac5c9b8	0.0015090024
72	0x3df23471	0.11826409
73	0x3d1d596f	0.03841537
74	0xbe8f683d	-0.28009215
75	0xbeae3c79	-0.34030512
76	0xbea03a0a	-0.3129428
77	0x3b855d87	0.004069987
78	0x3d17aa26	0.0370275
79	0x3da12e45	0.07870153
80	0x3daaced0	0.083402276
81	0x3d66bf04	0.05633451
82	0x3e97e7b4	0.29668963
83	0xbe466912	-0.19376019
84	0x39d8e5f8	0.0004137007
85	0xbe92cdce	-0.28672642
86	0xbeb11c85	-0.3459207
87	0x3b9f4893	0.0048609464
88	0xbc46bc5b	-0.012129868
89	0xbc7d1d1d	-0.015448836
90	0xbdda7a74	-0.10667887
91	0x3d510e2f	0.051038917
92	0xbddedc74	-0.10881892
93	0x3e02fcef	0.12791799
94	0xbc6b6302	-0.014366867
95	0xbde7e5f0	-0.11323154
96	0xbea5ccba	-0.32382756
97	0x3e2164df	0.15761136
98	0x3d131585	0.035909194
99	0xbce0b4f6	-0.027430039
100	0x3d832971	0.06404389
101	0x3ebe4f88	0.37170053
102	0x3e3698e2	0.17831758
103	0x3d8e215d	0.06939957
104	0x3deebeb8	0.116574705
105	0xbe361176	-0.17780098
106	0xbe34191c	-0.17587703
107	0xbde80564	-0.11329153
108	0xbea0028b	-0.3125194
109	0xbdeddf3e	-0.11614846
110	0x3e53acdd	0.20671411
111	0x3eaed717	0.34148476
112	0xbcead2a0	-0.028664887
113	0x3cdbc189	0.026825683
114	0x3e9479aa	0.28999072
115	0xbdedf154	-0.11618295
116	0xbdab9f3e	-0.083799824
117	0xbe1ea350	-0.15491986
118	0xbe10bc69	-0.14134373
119	0xbe327714	-0.17428237
120	0xbb9b2e2e	-0.0047357297
121	0x3ed66beb	0.4187921
122	0xbe7303d9	-0.23731937
123	0xbe29ab35	-0.16569217
124	0xbe90a1e7	-0.28248522
125	0x3d88fa79	0.06688399
126	0x3e937e23	0.28807172
127	0xbe133222	-0.14374593
128	0xbd81f408	-0.063453734
129	0x3ea6b45f	0.32559487
130	0x3d080d16	0.033215605
131	0xbe99690c	-0.29962957
132	0x3e362bb0	0.17790103
133	0x3dd414d3	0.103555344
134	0xbe3aa9cb	-0.18228833
135	0x3e6c7556	0.23091635
136	0x3e656f91	0.2240584
137	0xbe079d9f	-0.13243721
138	0x3e98a669	0.2981446
139	0xbea583fd	-0.32327262
140	0x3cb775a6	0.022394966
141	0xbe955d45	-0.29172722
142	0xbe215b58	-0.15757501
143	0xbe895bfb	-0.26827988
144	0xbd61309a	-0.05497799
145	0xbe08e653	-0.13369112
146	0x3f013ef3	0.5048668
147	0x3e0e9915	0.13925584
148	0x3d95a480	0.073067665
149	0xbecc21a8	-0.39869428
150	0x3e7df209	0.2479936
151	0xbea3cb73	-0.31991157
152	0x3e7f5c15	0.2493747
153	0x3ed951b4	0.42445147
154	0x3e850412	0.25979668
155	0xbdba2bf8	-0.090904176
156	0x3eecd887	0.46258947
157	0xbe44b4d8	-0.19209611
158	0x3eb1fffe	0.3476562
159	0x3ee835cc	0.45353544
160	0xbeb1a036	-0.34692544
161	0x3ebd8105	0.37012497
162	0x3d9633b3	0.073340796
163	0xbd17f397	-0.03709754
164	0xbd912413	-0.07086959
165	0x3d441467	0.04787102
166	0xbcdc6697	-0.026904387
167	0x3eb2f7dd	0.3495473
168	0xbe962751	-0.2932687
169	0xbe648f13	-0.22320203
170	0x3e11b76b	0.14230125
171	0x3e68dab0	0.22739673
172	0xbe68a544	-0.22719294
173	0xbeb23c85	-0.34811798
174	0x3ca81c55	0.020521322
175	0x3e92744d	0.28604355
176	0x3e6477b2	0.22311285
177	0x3e55a91d	0.20865293
178	0x3eb3b593	0.35099468
179	0xbe01b549	-0.12666811
180	0x3e5a3190	0.21307969
181	0x3d772dc6	0.060346387
182	0xbd5dd27a	-0.054155804
183	0x3e6b76c1	0.2299452
184	0x3e84a124	0.2590419
185	0x3e666295	0.22498544
186	0x3e5e4ef4	0.21709806
187	0xbe6c159c	-0.23055118
188	0x3e987b48	0.29781556
189	0xbe6953c6	-0.22785863
190	0xbc9a8a1d	-0.018864686
191	0xbe3c2362	-0.18372872
192	0xbee26ac7	-0.4422209
193	0x3eaae1b2	0.33375317
194	0xbe97a1e3	-0.29615697
195	0x3e187de5	0.14891775
196	0x3edbce85	0.42931
197	0x3ea0da89	0.3141673
198	0x3e0e2122	0.13879827
199	0x3ee43780	0.44573593
200	0x3e86798b	0.26264605
201	0xbe32f887	-0.17477618
202	0x3e9bf04d	0.30456772
203	0xbc5bac95	-0.013407846
204	0xbe5eef83	-0.21771054
205	0xbe804cec	-0.25058687
206	0xbe5f95e2	-0.2183452
207	0x3c15ce9c	0.009143498
208	0x3d8eb400	0.06967926
209	0x3ca4dee0	0.020125806
210	0x3e23463a	0.15944758
211	0x3e4af547	0.19820128
212	0xbe7095ee	-0.23494694
213	0xbe007abd	-0.12546821
214	0x3ef7eb78	0.48421836
215	0xbe86f973	-0.2636219
216	0xbe5cdc87	-0.215685
217	0x3ef9dca6	0.48801154
218	0x3eae3e24	0.34031785
219	0xbe9e003d	-0.30859557
220	0x3dc77480	0.097390175
221	0x3e376e87	0.17913257
222	0xbc768457	-0.015046201
223	0x3eb7708c	0.35828054
224	0xbe99e239	-0.30055407
225	0x3e5f348f	0.21797393
226	0xbdb16d5b	-0.08663436
227	0xbe592abf	-0.21207713
228	0x3e9c7cae	0.30563873
229	0x3e93651c	0.28788078
230	0xbe5c1a2c	-0.21494359
231	0x3dd582b7	0.104253225
232	0xbdfb4abd	-0.122701146
233	0x3e73c746	0.23806486
234	0xbe61e023	-0.22058158
235	0xbeea4241	-0.45753673
236	0xbd936fcc	-0.07199058
237	0xbdc9b89b	-0.09849664
238	0x3e0c61b2	0.13709143
239	0xbd630cad	-0.05543201
240	0xbd80ef1b	-0.06295606
241	0xbe362cbd	-0.17790504
242	0xbe43fdaf	-0.19139741
243	0x3d2e0541	0.04248548
244	0x3d43d866	0.047813796
245	0xbe836066	-0.25659484
246	0x3c770d11	0.015078799
247	0x3d4ce314	0.050021246
248	0xbe0cef1e	-0.13763091
249	0x3ebdb21e	0.37049955
250	0xbe074b93	-0.13212423
251	0xbe1b6e98	-0.15178907
252	0x3ea2bca1	0.31784537
253	0xbe291f15	-0.16515763
254	0x3dd09a70	0.101857066
255	0x3cbb0dff	0.022833822

sequential/dense_2/MatMul f4 [8, 16]
0	0xbedf9fc7	-0.43676588
1	0x3e4f6e9d	0.2025704
2	0xbe83e7cd	-0.25762787
3	0x3c845d09	0.016157644
4	0xbeb9cd80	-0.36289597
5	0x3f0b553c	0.5442693
6	0x3e7015a8	0.23445761
7	0x3f03f409	0.51544243
8	0xbd699bf8	-0.05703351
9	0x3f18275b	0.5943505
10	0xbe3e9157	-0.1861013
11	0x3eef0484	0.46683133
12	0xbe546d82	-0.20744899
13	0x3f0fa2f3	0.56108016
14	0x3f08a77d	0.53380567
15	0x3e03d832	0.1287544
16	0xbd7b88fc	-0.061409935
17	0xbe3e0b6b	-0.18559043
18	0xbecc1390	-0.39858675
19	0x3e8fc4b3	0.28079757
20	0xbe3c3c12	-0.1838229
21	0xbebd9243	-0.3702565
22	0x3ea2ba10	0.3178258
23	0x3ee0974b	0.43865427
24	0xbde6c0e9	-0.112672634
25	0xbdc8ce57	-0.09804981
26	0xbea4a3ff	-0.3215637
27	0x3f2921ed	0.6606739
28	0xbc5ec371	-0.013596402
29	0x3db07401	0.08615876
30	0x3eb3e9e3	0.3513938
31	0x3dd85801	0.105636604
32	0xbe96e0e0	-0.2946844
33	0xbedbeb4b	-0.42952952
34	0x3daf8bea	0.08571608
35	0x3f102e46	0.5632061
36	0x3df9a67b	0.12189957
37	0x3e85c464	0.26126397
38	0x3f1452e2	0.5793897
39	0x3d13ddb6	0.036100112
40	0xbe9d5363	-0.30727682
41	0xbe89b8fc	-0.26898944
42	0xbedebbed	-0.4350275
43	0x3e3f4e9a	0.18682328
44	0xbeb622dd	-0.35573474
45	0xbe2f3cee	-0.17113087
46	0x3e836c4e	0.25668567
47	0x3f1f62c1	0.6226006
48	0xbec3df47	-0.38256285
49	0x3e77fb94	0.24217063
50	0x3ea91bb5	0.3302895
51	0xbd848f8f	-0.06472694
52	0x3ed534b9	0.41641787
53	0x3f15b2a5	0.58475715
54	0xbe856fce	-0.26061863
55	0x3ed234c7	0.4105589
56	0xbe4e0124	-0.20117623
57	0x3e5d0895	0.21585305
58	0xbdcf80ea	-0.1013201
59	0x3d86d1c6	0.0658298
60	0xbe233de8	-0.15941584
61	0x3c572164	0.01313052
62	0x3e4f6896	0.2025474
63	0x3e09db0f	0.1346247
64	0xbea04b79	-0.3130758
65	0xbe188c74	-0.14897329
66	0xbd4f1398	-0.050555795
67	0x3e7aa7d4	0.24478084
68	0xbd92243c	-0.071358174
69	0x3d2ebef0	0.04266256
70	0x3f0af569	0.54280716
71	0xbe367310	-0.1781733
72	0xbd85cc40	-0.06533098
73	0xbdb56102	-0.088563934
74	0xbea2427f	-0.31691357
75	0x3f15d33f	0.5852546
76	0xbde3fa38	-0.1113171
77	0x3e1ee2b6	0.15516171
78	0x3f2a08f9	0.6641994
79	0x3ec0f26f	0.37684962
80	0x3d29c454	0.041447
81	0xbd2cc3f1	-0.04217905
82	0xbebd7d00	-0.3700943
83	0x3ea7d895	0.32782426
84	0x3e85a7aa	0.2610448
85	0xbe9ae5d1	-0.3025346
86	0x3deb6f2d	0.114958145
87	0x3e9fc100	0.31201935
88	0xbe8cb9e2	-0.27485567
89	0xbc0aab73	-0.008463728
90	0xbe9908ef	-0.29889628
91	0xbda42fa8	-0.08016902
92	0xbcef97fc	-0.029247276
93	0x3e8ac59e	0.27103895
94	0xbea90d41	-0.33017924
95	0x3f15ee31	0.58566576
96	0xbe468894	-0.19388038
97	0xbc1b4a04	-0.009478096
98	0xbe3ad676	-0.18245873
99	0xbdf6660d	-0.120311834
100	0x3f1a8778	0.6036296
101	0x3e38167d	0.17977329
102	0x3e06ce3e	0.13164613
103	0xbe0230be	-0.12713906
104	0xbdf08711	-0.11744512
105	0x3dc37fff	0.09545898
106	0xbf042069	-0.51611954
107	0xbe10ee61	-0.14153434
108	0xbe1f9ef7	-0.15587984
109	0x3f188852	0.5958301
110	0x3e6bcef8	0.23028171
111	0x3f384fd1	0.7199679
112	0xbe267b8b	-0.16258065
113	0xbeb1d89a	-0.34735566
114	0x3e16b6aa	0.14718118
115	0x3c3ab087	0.011394626
116	0x3f1f25b2	0.62166893
117	0x3df731ef	0.12070071
118	0x3f029e31	0.5102263
119	0x3e0ff8f5	0.14059813
120	0xbd2e1edc	-0.0425099
121	0xbe01bf82	-0.1267071
122	0xbee295f6	-0.44255036
123	0xbe92a82c	-0.2864393
124	0xbeb7b1a8	-0.35877728
125	0x3ef8da77	0.48604175
126	0x3e5cdd2c	0.21568745
127	0x3e95b054	0.2923609

sequential/dense_3/MatMul f4 [4, 8]
0	0x3f2731ea	0.6531054
1	0x3f1f5542	0.6223947
2	0x3f3f9a0f	0.7484445
3	0x3eaf773b	0.34270653
4	0x3ed915f0	0.4239955
5	0x3f456239	0.77103
6	0x3f5a401a	0.8525406
7	0x3f60e174	0.87844014
8	0xbeee6c0d	-0.4656681
9	0x3e45d79b	0.19320528
10	0x3e4b6f12	0.19866589
11	0x3d4f5f84	0.0506282
12	0xbe079091	-0.13238741
13	0xbf219a36	-0.6312593
14	0xbdb609e8	-0.08888608
15	0xbbc9c398	-0.00615735
16	0x3f0ea9bb	0.5572774
17	0x3f2974bb	0.6619374
18	0x3f1b27b7	0.60607475
19	0x3f42a94a	0.76039565
20	0xbe6cb45a	-0.23115674
21	0x3e345897	0.1761192
22	0xbe8ced39	-0.27524737
23	0xbef72093	-0.4826704
24	0x3d4c3aad	0.049860645
25	0x3e98095d	0.29694644
26	0xbe2e7b8c	-0.17039317
27	0xbe62537a	-0.22102156
28	0x3f37dd60	0.71822166
29	0xbdd345aa	-0.10316022
30	0xbe627eee	-0.22118732
31	0xbed6c462	-0.41946703

sequential/dense_4/MatMul f4 [2, 4]
0	0xbf0011f5	-0.500274
1	0x3f29e9fd	0.6637266
2	0xbf6a7657	-0.9158682
3	0xbf111318	-0.5666976
4	0x3efbef04	0.49205792
5	0x3f97bf0c	1.1855178
6	0x3f59da2e	0.8509854
7	0x3ef2d7ba	0.4743021

lstm_cell/MatMul_45 f4 [32, 32]
0	0xbca26ff6	-0.019828778
1	0xbcaa456a	-0.020785052
2	0x3d5325ce	0.051549725
3	0xbe03614e	-0.12830088
4	0xbdaa4c57	-0.08315342
5	0xbe49b4f8	-0.1969794
6	0xbe256754	-0.16152698
7	0x3de2a588	0.11066729
8	0xbe52445a	-0.20533887
9	0x3bf5fc66	0.007506895
10	0xbcebb99d	-0.02877503
11	0xbcd2b6ba	-0.025721896
12	0xbd931dbd	-0.071834065
13	0xbd086d9f	-0.033307668
14	0xbca499b4	-0.020092823
15	0xbc8c9355	-0.017160097
16	0x3e72a543	0.23695855
17	0x3c64e1e4	0.013969872
18	0x3cb2a108	0.021805301
19	0x3df4cc4b	0.11953028
20	0xbdf6b0eb	-0.12045463
21	0x3df54102	0.1197529
22	0x3e784377	0.24244486
23	0x3d62d624	0.05538
24	0xbe4818f8	-0.19540775
25	0x3dc5c545	0.09656767
26	0xbe04c142	-0.12964347
27	0xba31b659	-0.0006779186
28	0xbd1e7a3f	-0.0386908
29	0xbda719e2	-0.08159234
30	0xbd65b356	-0.05607923
31	0xbce08247	-0.027405871
32	0xbe1d90e9	-0.1538731
33	0xbdfaea25	-0.12251691
34	0xbdd145cb	-0.1021839
35	0xbe9003ba	-0.28127843
36	0x3d60e068	0.05490151
37	0xbc341f83	-0.010993841
38	0xbd58d5a9	-0.052938137
39	0xbca05a42	-0.019574288
40	0x3da5b649	0.08091409
41	0x3d8cc959	0.068743415
42	0xbe274e07	-0.16338359
43	0xbd060d3c	-0.032727465
44	0xbdf156fb	-0.11784168
45	0xbdafb37a	-0.08579154
46	0xbda680c3	-0.08130028
47	0xbdcb9cac	-0.09941992
48	0x3e06b128	0.13153517
49	0x3de77f38	0.11303562
50	0x3d3e291c	0.046425924
51	0x3e4bed6f	0.19914792
52	0xbde08ac3	-0.10963967
53	0xbddb3262	-0.10702969
54	0x3e9185d5	0.28422418
55	0xbdec4732	-0.11537017
56	0xbe2bfd2c	-0.16795796
57	0x3da288d4	0.07936254
58	0xbe92c234	-0.2866379
59	0xbe384118	-0.17993581
60	0xbe5ba2ca	-0.21448818
61	0xbd4c13f2	-0.04982371
62	0xbe59cbf8	-0.21269214
63	0x3e05e01b	0.1307377
64	0xbe3576df	-0.17721127
65	0xbd56890e	-0.0523768
66	0xbd11b7d6	-0.03557571
67	0x3c7bf094	0.0153771825
68	0x3e0d03e1	0.13771011
69	0xbda4a6da	-0.08039637
70	0xbd8cfb28	-0.06883842
71	0x3dafde64	0.085873395
72	0xbe83d423	-0.25747785
73	0x3e01acdc	0.12663597
74	0xbe139171	-0.1441095
75	0xbe3b277c	-0.18276781
76	0xbc90ded3	-0.017684376
77	0xbcfb26bf	-0.030658124
78	0xbd98ee58	-0.074673355
79	0xbd85942a	-0.06522401
80	0x3c8364c5	0.016039262
81	0x3e7d97b1	0.24764897
82	0xbdce298b	-0.100665174
83	0x3e3d806a	0.18506017
84	0xbe2c5f4d	-0.1683323
85	0x3d944f34	0.07241669
86	0x3e19d5d6	0.15022978
87	0x3d8cead0	0.068807244
88	0x3cda0e28	0.026618078
89	0x3e7d0f74	0.24712926
90	0xbe798d66	-0.24370345
91	0xbe01e253	-0.12683992
92	0xbe8506c5	-0.25981727
93	0x3d8c1309	0.06839568
94	0xbd2144a3	-0.039372098
95	0x3dd9ef6c	0.10641369
96	0xbdfb74a2	-0.12278105
97	0xbd5c2e9c	-0.053755388
98	0xbe011747	-0.12606536
99	0xbd9ad3a3	-0.07559898
100	0x3d67da72	0.05660481
101	0xbced8053	-0.028991854
102	0x3c6a5c5d	0.014304248
103	0xbd33eed9	-0.043928955
104	0xbe04eeff	-0.12981795
105	0x3e18b39d	0.14912267
106	0x3d721cfd	0.059109677
107	0xbdd12901	-0.10212899
108	0xbd2f9793	-0.04286916
109	0xbe310f75	-0.17291053
110	0x3e282c4a	0.16423145
111	0x3b90a822	0.0044145742
112	0x3e9d4439	0.30716112
113	0x3e477beb	0.19480865
114	0xbd054c91	-0.032543723
115	0x3d41c715	0.047309
116	0xbd932a34	-0.07185784
117	0xbddb8b01	-0.10719872
118	0xbd9f59e4	-0.07780817
119	0x3d4d7a08	0.050165206
120	0x3ce51b46	0.027967107
121	0xbc60ed78	-0.013728492
122	0xbe1e3546	-0.1545001
123	0xbe336abe	-0.17521188
124	0xbe0ee2aa	-0.13953653
125	0xbd513647	-0.051077154
126	0xbd31ac44	-0.043377176
127	0x3cf0990c	0.029369853
128	0xbe119d46	-0.14220151
129	0xbd23840f	-0.039920863
130	0xbcef86a8	-0.029239014
131	0xbdcd8870	-0.10035789
132	0x3b1612d0	0.0022899397
133	0xbcf04359	-0.029328989
134	0xbdd73846	-0.1050878
135	0x3da7d60d	0.08195124
136	0xbe62de33	-0.22155075
137	0x3dc9d894	0.09855762
138	0xbcc42aa6	-0.023946118
139	0x3da3fef9	0.080076165
140	0xbe9bcd89	-0.30430248
141	0xbda8f0d7	-0.082490616
142	0xbd2ab072	-0.041672178
143	0x3c12eb1b	0.008967186
144	0xbb2d25fb	-0.0026420343
145	0x3c75658d	0.014977825
146	0x3d33f396	0.043933474
147	0x3e4207a9	0.18948235
148	0xbda44d4d	-0.080225565
149	0x3e280a14	0.16410094
150	0xbd38b3a8	-0.04509321
151	0xbe5ec343	-0.21754174
152	0xbe1a872e	-0.1509063
153	0x3d9f8457	0.07788914
154	0xbdad1da9	-0.08452923
155	0xbddc5a76	-0.107594416
156	0xbdeb0348	-0.11475235
157	0xbdc98c81	-0.09841252
158	0x3d937187	0.07199388
159	0xbd1fa06b	-0.038971346
160	0xbd87d050	-0.06631529
161	0x3deb97c7	0.115035586
162	0xbdeab53c	-0.11460349
163	0x3cc38442	0.023866776
164	0x3e300827	0.1719061
165	0xbd85742e	-0.065163
166	0x3caee4e2	0.021349374
167	0x3e0c986f	0.13730024
168	0xbdd555af	-0.104167335
169	0x3cba70dc	0.022758894
170	0xbdbf01eb	-0.09326538
171	0x3c539cdc	0.012915816
172	0xbcab59c5	-0.020916829
173	0xbcbaae56	-0.022788208
174	0x3e0e4e89	0.13897146
175	0xbd94fb05	-0.07274441
176	0xbcf2be01	-0.029631617
177	0xbcbccb42	-0.02304614
178	0xbd9ef20c	-0.077610105
179	0x3dda0bd5	0.10646788
180	0xbcaaae65	-0.02083511
181	0x3d50e872	0.051002927
182	0x3d32d83a	0.04366324
183	0xbe605482	-0.21907237
184	0xbddc2eae	-0.10751091
185	0x3cb1cd91	0.021704467
186	0xbdfa6c64	-0.12227705
187	0xbe2b63f2	-0.16737345
188	0xbe46bf1c	-0.1940884
189	0xbdb409a0	-0.08790898
190	0x3ca00be1	0.019536914
191	0x3dc24f23	0.094877504
192	0xbe24559e	-0.16048285
193	0xbe11cf65	-0.14239271
194	0xbd918d12	-0.07106985
195	0xbddad9e4	-0.106860906
196	0x3dd56734	0.10420075
197	0xbd90ba5b	-0.070667945
198	0xbe0620a2	-0.13098386
199	0x3d35d9a5	0.044397015
200	0xbe0ccc80	-0.13749886
201	0x3ddd5b57	0.10808437
202	0xbe0c9463	-0.1372848
203	0x3e2188fa	0.15774909
204	0xbdeeffd3	-0.11669888
205	0xbe5c772e	-0.21529838
206	0xbeb05ad9	-0.3444431
207	0xbe027a17	-0.12741886
208	0x3e568d9a	0.20952454
209	0x3e105503	0.1409493
210	0xbe81f9ac	-0.25385797
211	0x3e8308a2	0.25592524
212	0xbd6beedb	-0.057600837
213	0x3e38e600	0.18056488
214	0x3e8974f8	0.26847053
215	0x3d5f566d	0.05452578
216	0x3d849804	0.06474307
217	0x3ea27ae4	0.31734383
218	0xbe42b799	-0.1901535
219	0xbd92320b	-0.07138451
220	0xbe221136	-0.15826878
221	0xbe5429de	-0.20719096
222	0x3e190201	0.1494217
223	0x3e233cf2	0.15941218
224	0x3c8d16cb	0.017222783
225	0xbe3d7b20	-0.18504
226	0xbd598e2d	-0.053114105
227	0xbc3a7c10	-0.011382118
228	0xbd3527a4	-0.044227257
229	0x3c185bb8	0.009299211
230	0xbc6dfd16	-0.014525672
231	0xbd1ec1ad	-0.038758922
232	0xbd6134e0	-0.054982066
233	0x3de7a2c2	0.113103405
234	0xbd140c5b	-0.036144596
235	0x3e10fe19	0.1415943
236	0xbe5b2ad0	-0.2140305
237	0xbe68ac3a	-0.22721949
238	0xbd2fe09c	-0.042938814
239	0xbe1b49aa	-0.1516482
240	0x3dcb3af2	0.09923352
241	0x3d4400de	0.04785239
242	0xbda43b37	-0.08019107
243	0x3ce80c45	0.028326163
244	0xbe52346c	-0.2052781
245	0x3d474d08	0.048657447
246	0xbd4406a7	-0.047857907
247	0x3cfe6ff4	0.031059243
248	0xbdcc0eb9	-0.099637456
249	0x3dbc7194	0.09201351
250	0x3c093d6f	0.008376463
251	0xbe02f05c	-0.12787002
252	0xbe372626	-0.17885646
253	0x3bf5ba8d	0.007499045
254	0x3d202eeb	0.039107244
255	0x3d975e3c	0.07391021

lstm_cell/MatMul_55 f4 [32, 32]
0	0x3d9cb21c	0.07651159
1	0x3e0f825e	0.14014575
2	0xbe1eb50d	-0.15498753
3	0xbe4d3323	-0.20039038
4	0x3e380b57	0.17973076
5	0xbd70dfbb	-0.058807116
6	0xbe270bca	-0.16313091
7	0x3d8189ed	0.063251354
8	0x3da6dfd5	0.08148161
9	0xbcb792bf	-0.022408841
10	0x3d8c2883	0.068436645
11	0xbe0fe648	-0.14052689
12	0xbe069828	-0.1314398
13	0x3d3669c9	0.04453448
14	0xbdde1a19	-0.108448215
15	0xbdbe40f4	-0.092897326
16	0xbcf3b9e9	-0.029751735
17	0x3d945d0c	0.0724431
18	0xbd044276	-0.032289945
19	0xbe218cbe	-0.15776345
20	0x3c1799f7	0.009253017
21	0x3dc19f82	0.09454252
22	0xbc2b8cc8	-0.010470577
23	0x3df1be4b	0.11803874
24	0xbd80e5f8	-0.06293863
25	0x3d6da3b5	0.05801745
26	0x3d2321e5	0.039827246
27	0xbe11ad20	-0.14226198
28	0x3cbc9c90	0.023023874
29	0xbce33535	-0.027735332
30	0x3bf0fbd9	0.0073542413
31	0x3d27108a	0.040787257
32	0x3e0af479	0.13569821
33	0xbcb09eb6	-0.021560054
34	0x3d216480	0.039402485
35	0xbda0baf1	-0.07848156
36	0x3d81df37	0.06341403
37	0x3ba6c0af	0.0050888876
38	0xbe0a8efb	-0.13531105
39	0x3a1a6d70	0.0005890941
40	0xbadd2923	-0.0016873222
41	0xbdf5272d	-0.11970363
42	0x3cc786de	0.024356302
43	0xbe3bcdee	-0.18340275
44	0x3daebfe7	0.08532696
45	0x3de4f9ab	0.11180433
46	0x3de5c86e	0.112198696
47	0xbe28fe8a	-0.16503349
48	0xbd23060d	-0.039800692
49	0xbc86453a	-0.016390432
50	0x3dd7b072	0.10531701
51	0x3de5901e	0.11209129
52	0x3d4d8c8b	0.05018286
53	0xbe6d6928	-0.23184645
54	0xbce9d595	-0.028544227
55	0x3d8afa47	0.06786018
56	0xbc45a8fe	-0.012064217
57	0xbdf39096	-0.11892812
58	0x3e0fb12b	0.14032428
59	0xbe0992c6	-0.13434896
60	0x3e302852	0.17202881
61	0x3d0105c7	0.03149965
62	0x3dc17866	0.09446792
63	0xbc585a86	-0.013205176
64	0x3d3e7a81	0.046503548
65	0xbd213293	-0.039354872
66	0xbd44b8cc	-0.0480278
67	0x3e1ed2f9	0.15510167
68	0x3dcb0612	0.09913267
69	0xbb6f9cdc	-0.0036562001
70	0xbde258c6	-0.110520884
71	0xbd635082	-0.0554967
72	0xbe1fc074	-0.15600759
73	0xbdf4f7c4	-0.1196132
74	0x3da98001	0.08276368
75	0xbd413086	-0.047165416
76	0xbc1ad6d7	-0.009450636
77	0x3e140fe3	0.14459185
78	0x3e839191	0.25696996
79	0xbded2bc5	-0.11580614
80	0x3ceb7964	0.028744407
81	0xbda4cbc4	-0.08046678
82	0x3e1a9402	0.15095523
83	0xbd7e8f17	-0.06214818
84	0xbdf1ce8a	-0.11806972
85	0xbe284dfb	-0.16435997
86	0x3e40082d	0.18753119
87	0xbd495fb2	-0.049163528
88	0x3e1aa6c9	0.15102686
89	0xbd797410	-0.0609017
90	0xbd81b3ec	-0.063331455
91	0xbc3a802e	-0.0113830995
92	0xbd66aa11	-0.05631453
93	0x3dfd9904	0.12382701
94	0xbc44dc87	-0.012015468
95	0x3d85192a	0.0649894
96	0xbe250649	-0.16115679
97	0xbbd2b476	-0.006430204
98	0xbdd57d04	-0.104242355
99	0xbe004483	-0.12526135
100	0x3babba1e	0.0052406928
101	0x3d9444dc	0.072396964
102	0xbd79dd78	-0.061002225
103	0x3cfe8886	0.031070959
104	0xbdce976f	-0.100874774
105	0x3af6485a	0.0018789873
106	0x3dec49eb	0.11537536
107	0x3ddb41b4	0.10705891
108	0xbc0e7b18	-0.00869634
109	0x3da7e9e0	0.08198905
110	0x3e822fe4	0.25427163
111	0xbe19c8ba	-0.15017977
112	0xbd46a67a	-0.04849861
113	0xbd079894	-0.033104494
114	0xbe0ae7b2	-0.13564947
115	0xbd0bf01b	-0.03416453
116	0xbd206048	-0.03915432
117	0xbcbcf1b7	-0.023064477
118	0x3de6d8fe	0.11271857
119	0x3e8aa9d7	0.27082703
120	0xbbceaef5	-0.0063074776
121	0x3da1dae1	0.07903076
122	0xbcbcbfde	-0.023040708
123	0xbd9d9bc9	-0.07695729
124	0xbda16872	-0.078812495
125	0xbdeca519	-0.115549274
126	0xbdbbdf1c	-0.09173414
127	0xbbcc38e8	-0.0062323697
128	0x3dc2313b	0.09482046
129	0xbd9f19d8	-0.07768601
130	0xbd106486	-0.035252117
131	0xbd0c0122	-0.034180768
132	0xba3256ee	-0.00068031147
133	0xbe2f2472	-0.17103747
134	0x3d882b66	0.066489026
135	0xbe565e8b	-0.20934503
136	0xbe18d8ed	-0.149265
137	0x3dbfa9ba	0.09358545
138	0xbdea801e	-0.11450218
139	0xbd27cf60	-0.040969253
140	0xbdcf8c94	-0.10134235
141	0x3d23ff1a	0.040038206
142	0xbe5c742d	-0.21528693
143	0xbe5b170a	-0.21395507
144	0x3d03246a	0.03201715
145	0x3e16116e	0.14655086
146	0x3bc6edec	0.006070843
147	0xbd4ec2f5	-0.050478894
148	0xbd4f8732	-0.05066604
149	0x3c94b88e	0.018154409
150	0x3c33d4d1	0.010976032
151	0x3df9deaf	0.12200677
152	0xbb6a7391	-0.003577445
153	0x3ca9d160	0.02072972
154	0xbc760791	-0.015016452
155	0x3d046a1c	0.032327756
156	0x3e190a60	0.14945364
157	0x3cec9d8c	0.028883718
158	0xbc37a635	-0.01120906
159	0x3dff5205	0.12466816
160	0x3bba26f4	0.005680913
161	0x3d2a0941	0.04151273
162	0xbd295b34	-0.041346744
163	0xbdce6f42	-0.100798145
164	0x3e0e9bd8	0.13926637
165	0xbc9f9f01	-0.019484999
166	0xbd820d24	-0.063501626
167	0x3d2a1143	0.04152037
168	0x3cac0835	0.021000007
169	0xbd96d337	-0.07364505
170	0x3b64ddd5	0.0034922261
171	0xbe287dbe	-0.16454217
172	0xbd445256	-0.047930084
173	0x3dddb46d	0.10825429
174	0x3c4c3be4	0.012465451
175	0xbc8a76da	-0.016902376
176	0x3e2adc5f	0.16685627
177	0xbe002803	-0.12515263
178	0x3ccff4b5	0.02538524
179	0xbd52b883	-0.051445495
180	0x3dfd854b	0.12378939
181	0xbd14a9e9	-0.03629485
182	0xbd74cb2d	-0.059764076
183	0xbdda66ee	-0.106641635
184	0xbd0019af	-0.031274494
185	0x3d3e5266	0.0464653
186	0x3db951fd	0.09048841
187	0xbca345a0	-0.01993066
188	0x3e7dbfe9	0.24780239
189	0x3d76f2b5	0.060290057
190	0xbda4df7b	-0.08050438
191	0x3da39214	0.079868466
192	0xbd1efae6	-0.038813494
193	0xbc96066b	-0.018313607
194	0xbd03e094	-0.032196596
195	0x3cd9f206	0.026604664
196	0x3d55fa88	0.05224088
197	0xbd16e59d	-0.03684007
198	0x3e1d2402	0.15345767
199	0x3e343d94	0.17601615
200	0xbdf49fba	-0.11944528
201	0x3dc204ec	0.09473595
202	0x3db0e1a0	0.086367846
203	0x3d1f5a1d	0.038904298
204	0xbc372118	-0.011177324
205	0xbd57e77d	-0.052711
206	0xbdee3ed7	-0.116330795
207	0xbce28847	-0.027652873
208	0x3e34ce97	0.17656933
209	0x3dad3002	0.084564224
210	0x3dc8e192	0.09808649
211	0xbd9b33fa	-0.07578273
212	0x3d40cb36	0.047068797
213	0xbdc70197	-0.097171
214	0x3e9ae0dc	0.3024968
215	0x3c450ca2	0.012026938
216	0x3c327203	0.01089144
217	0x3e1024e6	0.14076576
218	0x3d59c0eb	0.053162497
219	0xbd9819c0	-0.074267864
220	0xbe039d87	-0.1285306
221	0x3d8b5361	0.06803013
222	0x3e457692	0.19283512
223	0xbdd19319	-0.10233135
224	0xbd62ca66	-0.055368803
225	0xbdbc769a	-0.09202309
226	0xbcb379e1	-0.021908702
227	0x3d41edd6	0.04734596
228	0x3e06686f	0.13125776
229	0xbd2ebde7	-0.042661574
230	0x3dae6f6a	0.08517344
231	0x3cfc1d2d	0.03077563
232	0x3e3d80f7	0.18506227
233	0x3e10c7bc	0.14138693
234	0xbe785d6b	-0.24254386
235	0xbd0ccf4b	-0.034377377
236	0xbe3b205b	-0.18274061
237	0x3df55be5	0.11980418
238	0x3ce90004	0.02844239
239	0xbc9bc45a	-0.019014526
240	0x3d3bc2b5	0.045839984
241	0x3d0a2712	0.033728667
242	0xbe0887ee	-0.13333103
243	0xbdd293c7	-0.102820925
244	0xbe1f6a88	-0.15567982
245	0x3d94c8cd	0.07264862
246	0xbd1cda00	-0.03829384
247	0x3de863b9	0.113471456
248	0xbe2cba3c	-0.16867918
249	0x3d5b3ddf	0.0535258
250	0xbd377bd9	-0.044795845
251	0xbd0709f8	-0.03296849
252	0xbe0a3c4e	-0.13499567
253	0xbd9c2e7e	-0.07626055
254	0x3d86e38d	0.065863706
255	0x3dde5440	0.10855913

lstm_cell/MatMul_65 f4 [32, 32]
0	0x3c34f0aa	0.011043707
1	0xbd069cc3	-0.032864343
2	0x3d6f53e2	0.058429606
3	0x3e108d40	0.14116383
4	0x3bb0ef18	0.005399596
5	0xbd769a1e	-0.06020557
6	0xbcc0090f	-0.02344182
7	0x3dadaf76	0.08480732
8	0x3d07264e	0.032995515
9	0x3dbfca56	0.093647644
10	0x3c8cae20	0.017172873
11	0xbdc50d2e	-0.096216545
12	0xbdfd7fb5	-0.12377874
13	0x3e321e68	0.17394412
14	0xbdc2f478	-0.09519285
15	0xbbaa2229	-0.0051920605
16	0x3e641a32	0.22275618
17	0xbb5e169f	-0.0033887995
18	0xbc0992a4	-0.008396778
19	0x3e0f299c	0.13980716
20	0x3df76897	0.12080496
21	0xbd479435	-0.048725326
22	0x3e416f97	0.18890224
23	0x3de3d05e	0.11123727
24	0x3e6802b0	0.22657275
25	0x3bb785b0	0.0056006536
26	0x3e170365	0.14747389
27	0xbda60022	-0.08105494
28	0xbc498f2e	-0.012302203
29	0x3c4ec8a6	0.0126210805
30	0x3d1d57ee	0.038413934
31	0x3e2392a6	0.1597391
32	0x3d3b942a	0.045795597
33	0x3da0c186	0.07849412
34	0xbbedad87	-0.007253352
35	0x3df648fa	0.12025638
36	0x3dbdb3d2	0.09262814
37	0x3d7d3ac4	0.06182362
38	0x3d473a49	0.04863957
39	0x3d6652a1	0.056231145
40	0x3e2ac52c	0.16676778
41	0xbd0f9596	-0.035054766
42	0x3dcdf0f5	0.100557245
43	0x3d40d5d8	0.047078937
44	0xbdfddbb1	-0.123954184
45	0x3cc5a87c	0.024128191
46	0x3d1e40a2	0.038635857
47	0xbd336d34	-0.043805316
48	0x3d95687e	0.07295321
49	0xbd3edec4	-0.046599165
50	0xbd2784d3	-0.040898155
51	0x3c40fd77	0.011779181
52	0x3e23b470	0.159868
53	0x3dd83431	0.1055683
54	0x3e0c814c	0.13721198
55	0x3d301deb	0.042997282
56	0xbd1681d4	-0.036744907
57	0xbbc97b39	-0.0061487225
58	0x3d128282	0.035768993
59	0x3dd3c4ae	0.10340248
60	0x3e35d770	0.17757964
61	0x3dfae8a8	0.12251407
62	0x3cebfc1c	0.028806739
63	0xbc00fbf5	-0.007872571
64	0xbd2cd1dc	-0.042192325
65	0x3cd8cc2d	0.026464546
66	0xbdd87b0a	-0.10570343
67	0x3bcf4536	0.0063253893
68	0x3d03f601	0.03221703
69	0x3e3ece6a	0.18633428
70	0xbd237287	-0.039904144
71	0x3cff5616	0.031168979
72	0x3d9b3b86	0.075797126
73	0xbd86bceb	-0.06579002
74	0x3e664c4e	0.22490045
75	0x3d810d5f	0.063013785
76	0x3e0b19a7	0.13584004
77	0xbcbb1c62	-0.022840682
78	0xbd21d103	-0.03950597
79	0x3e86f1b5	0.26356283
80	0x3e4d9a64	0.20078427
81	0xbd6c6e09	-0.057722125
82	0x3d97da7c	0.074147195
83	0x3d02b3e8	0.031909853
84	0x3d914e8b	0.07095059
85	0xbc9461b6	-0.018112998
86	0x3d7ee23c	0.062227473
87	0x3e063809	0.13107313
88	0xbd5e2b18	-0.054240316
89	0x3e55e1d9	0.20886935
90	0x3ca9c611	0.020724328
91	0x3e6e7281	0.23285867
92	0x3b9f16c2	0.004855008
93	0x3c9d1047	0.0191728
94	0xbbe45808	-0.006968502
95	0xbceea8e4	-0.029133268
96	0x3e0a6f8d	0.13519116
97	0x3e17006c	0.14746255
98	0x3c92c7d6	0.017917555
99	0x3d7ab860	0.06121099
100	0x3c4b9685	0.012426023
101	0x3d808b23	0.06276538
102	0xbcbf893e	-0.023380872
103	0xbdad01c8	-0.08447605
104	0xbd9ae414	-0.07563034
105	0x3dc1ad3d	0.09456871
106	0x3e3a93aa	0.18220392
107	0xbc9bda14	-0.019024886
108	0x3dc88337	0.09790652
109	0xbdec3f3b	-0.11535498
110	0x3c98fb42	0.018674497
111	0x3e2d4998	0.16922605
112	0x3c8a386d	0.016872609
113	0x3cf6b592	0.030115876
114	0x3bda0599	0.0066534993
115	0x3c86179b	0.016368678
116	0x3dc2d32e	0.095129356
117	0xbdb6d02f	-0.089264266
118	0x3d82a0e4	0.06378344
119	0x3d9a6ec1	0.07540656
120	0x3dd9a57e	0.10627268
121	0xbdc87f27	-0.097898774
122	0x3e665922	0.22494939
123	0xbd1f04db	-0.03882299
124	0xbc1a224c	-0.009407591
125	0x3d299f67	0.041411784
126	0xbd3bcc9f	-0.04584944
127	0x3d2974a0	0.041370988
128	0xbdc7452c	-0.0972999
129	0x3db6b546	0.08921294
130	0xbce53618	-0.027979895
131	0x3dd09dd5	0.10186354
132	0xbd924d94	-0.07143703
133	0xbd2f6ae5	-0.042826552
134	0xbde74e37	-0.11294215
135	0xbd072241	-0.03299165
136	0xbda1b04a	-0.078949526
137	0x3ce3dd18	0.027815387
138	0x3df9ba4b	0.12193736
139	0x3db91750	0.0903765
140	0x3ddbe352	0.10736717
141	0x3ca2f26d	0.019890988
142	0xbd3f6b61	-0.046733264
143	0xbd243e6a	-0.040098585
144	0xbdefe893	-0.11714282
145	0xbbdf33fe	-0.006811618
146	0x3b8537ba	0.004065481
147	0xbe41198a	-0.18857399
148	0xbdab2b38	-0.08357853
149	0x3aa8f5de	0.0012890657
150	0xbd85d459	-0.06534643
151	0xbcd3db25	-0.025861332
152	0x39d41f65	0.00040459182
153	0x3d55aa91	0.052164618
154	0xbe2563fe	-0.16151425
155	0xbdfbcd56	-0.12295024
156	0x3e2454ec	0.1604802
157	0xbe0faed8	-0.14031541
158	0x3dde575b	0.108565055
159	0x3d21d87f	0.039513107
160	0xbdca5dbc	-0.0988116
161	0x3d01a592	0.03165204
162	0x3dd37133	0.103243254
163	0x3bab7bcf	0.005233265
164	0xbd7c7611	-0.061636034
165	0xbb9524c0	-0.0045515
166	0x3d6e9768	0.05824986
167	0x3cdb1291	0.026742252
168	0x3d9764c6	0.07392268
169	0xbe2033c8	-0.15644753
170	0x3e03deed	0.12878008
171	0xbe102920	-0.14078188
172	0xbe82538f	-0.25454375
173	0xbc56e0fa	-0.013115162
174	0x3d8dad13	0.06917777
175	0x3ce38786	0.027774584
176	0x3df3c99c	0.11903688
177	0x3be46b04	0.006970765
178	0x3d33682d	0.04380052
179	0xbc50c31f	-0.012741833
180	0x3d4e8ec7	0.05042913
181	0xbdf47ed7	-0.11938255
182	0xbd53be2e	-0.05169504
183	0xbc7867fe	-0.015161512
184	0x3d81b79b	0.06333848
185	0xbbdf497b	-0.0068141795
186	0x3ce747b8	0.02823244
187	0x3e2e91e3	0.17047839
188	0x3db47830	0.088119864
189	0xbc0f62f6	-0.0087516215
190	0x3da10de7	0.0786398
191	0xbda7cf10	-0.08193791
192	0xbd21e005	-0.039520282
193	0x3d62c286	0.055361293
194	0xbd7b72b1	-0.061388675
195	0x3d052f47	0.03251579
196	0xbb7a6da2	-0.003821232
197	0x3dca4c97	0.098778896
198	0x3d7f3038	0.062301844
199	0xbd0ecaee	-0.034861498
200	0xbd24c228	-0.040224224
201	0xbda8be13	-0.08239379
202	0xbd32a126	-0.043610714
203	0xbdf4ba35	-0.11949579
204	0x3d0ff35a	0.035144188
205	0x3d44a224	0.04800619
206	0xbe348969	-0.17630543
207	0x3ca2415f	0.019806562
208	0x3e434d15	0.19072373
209	0xba9cb28c	-0.0011955067
210	0x3dc70fcc	0.0971981
211	0x3de33135	0.1109337
212	0x3d52782a	0.05138413
213	0x3d4ca599	0.049962614
214	0x3b4ca422	0.003122576
215	0xbe23eca8	-0.16008246
216	0x3e1ca61b	0.15297739
217	0x3e478910	0.19485879
218	0x3daa60cf	0.08319246
219	0xbd8ec43e	-0.06971024
220	0x3d3cbe01	0.04607964
221	0xbdb78214	-0.08960357
222	0x3cadd129	0.0212179
223	0xbca0024f	-0.01953235
224	0x3e18e5ba	0.14931384
225	0xbdc1fe83	-0.094723724
226	0x3e76152b	0.24031512
227	0xbc3d8a69	-0.011568644
228	0x3c7b6e82	0.015346171
229	0xbcd4ae72	-0.025962088
230	0x3c1afd2f	0.009459778
231	0xbccad6ab	-0.024760565
232	0x3dfbb4e0	0.122903585
233	0x3dee9603	0.11649706
234	0xbe383fda	-0.17993107
235	0x3d17d64d	0.037069608
236	0xbc7f1d88	-0.015571006
237	0xbd851d3c	-0.06499717
238	0x3c9c5153	0.019081747
239	0xbcc20b8a	-0.023687143
240	0x3db4331b	0.0879881
241	0xbc11aab8	-0.0088908
242	0xbe6bdeb7	-0.23034178
243	0xbc61bff1	-0.013778673
244	0x3c5b491f	0.013384133
245	0x3d9b7e3a	0.07592435
246	0xbe1de118	-0.15417898
247	0xbd45a970	-0.04825729
248	0xbd8d147f	-0.06888675
249	0xbd002150	-0.03128177
250	0xbce0958e	-0.027415063
251	0x3d3ca486	0.04605534
252	0x3cd7862d	0.026309097
253	0xbd9f9e26	-0.07793836
254	0xbcd4b5f1	-0.025965663
255	0xbe235b8e	-0.15952894
