13-7-20/_SMS_classifier_android.tflite (tflite, 802528 bytes, 5 tensors)

sequential/dense/BiasAdd/ReadVariableOp f4 [25]
0	0x3d31a5d9	0.043371055
1	0x3e60893f	0.21927355
2	0x3e03631e	0.12830779
3	0xbe6220c7	-0.22082816
4	0x3e6fb09b	0.23407213
5	0x3cd88c81	0.026434185
6	0xbe0c075f	-0.13674687
7	0x3d758ebd	0.05995058
8	0xbcee3c55	-0.029081503
9	0xbeac51d2	-0.33656174
10	0x3e8d4d7d	0.2759818
11	0x3e444587	0.19167148
12	0xbce989b5	-0.028508047
13	0x3e8c8a27	0.27449152
14	0xbc87bfb4	-0.016570903
15	0xbe26fe0b	-0.16307847
16	0xbd1b9e1d	-0.037992585
17	0x3d5ea892	0.05435998
18	0xbe5b7687	-0.21431933
19	0x3ea7bfdc	0.32763565
20	0xbce28054	-0.027649082
21	0x3e01d345	0.12678249
22	0xbeb00e13	-0.34385738
23	0x3bd7ce26	0.006585854
24	0x3c50a340	0.012734234

sequential/dense_1/BiasAdd/ReadVariableOp f4 [2]
0	0xbde68c29	-0.11257202
1	0x3e1c57b1	0.15267827

sequential/embedding/embedding_lookup/8432 f4 [3977, 50]
0	0xbcbb17f5	-0.022838572
1	0xbe954f94	-0.29162276
2	0xbeffdff7	-0.4997556
3	0xbf0c0d77	-0.54708046
4	0x3c2e1cf6	0.010627022
5	0xbd9911c4	-0.07474092
6	0xbe16adfb	-0.14714806
7	0xbd6cddc3	-0.057828676
8	0xbdd3d90c	-0.10344133
9	0x3d4005cc	0.04688053
10	0xbe22e8c8	-0.15909111
11	0xbc53e96c	-0.01293407
12	0xbf25ba1c	-0.64737105
13	0x3d8c242f	0.06842839
14	0x3cdc2305	0.026872167
15	0xbd025ca1	-0.03182662
16	0x3d1bf2d4	0.038073376
17	0x3d341a74	0.04397054
18	0xbe4ae20f	-0.19812797
19	0xbb8b9359	-0.0042595086
20	0x3d37974a	0.044822015
21	0xbd25c157	-0.040467586
22	0xbd882c3f	-0.06649064
23	0xbd904742	-0.07044841
24	0xbe9a6cda	-0.30161172
25	0xbf57f950	-0.84364796
26	0xbe5d3e85	-0.2160588
27	0x3d7f9771	0.062400285
28	0x3c18bfd7	0.009323082
29	0xbe2a9113	-0.16656904
30	0x3e17174d	0.14754982
31	0xbdd5205e	-0.10406564
32	0x3d09a7a3	0.033607136
33	0xbdc7ac0c	-0.09749612
34	0xbddef335	-0.10886232
35	0x3e045943	0.12924676
36	0xbd26fc5c	-0.040768012
37	0x3ce686ca	0.028140444
38	0x3d6f9b2c	0.058497593
39	0xbda1cfa2	-0.07900931
40	0xbf1ac670	-0.6045904
41	0xbd4c5ff6	-0.049896203
42	0xbd1ad44b	-0.037800115
43	0x3d0b1837	0.03395864
44	0x3d395990	0.04525143
45	0xbda2faba	-0.079579785
46	0x3d3e805e	0.04650914
47	0xbe95186b	-0.29120192
48	0xbddc5ce0	-0.10759902
49	0x3c7ed9e8	0.015554883
50	0x3f2f74dd	0.68537694
51	0xbd20d23d	-0.039263
52	0xbd5a1067	-0.0532383
53	0xbec25679	-0.37956598
54	0x3ed945e7	0.42436144
55	0xbcd5688f	-0.026050834
56	0xbed3d85a	-0.41376
57	0x3dda61cd	0.10663185
58	0xbe98d10f	-0.29847
59	0xbdae9920	-0.085253
60	0x3de9ee95	0.11422459
61	0x3e4c5a3a	0.19956294
62	0xbe90c476	-0.28274888
63	0xbedf80dc	-0.43653
64	0x3eab19a4	0.33418
65	0x3f4b2f31	0.79368883
66	0x3ce61d03	0.028090006
67	0xbeb05faf	-0.34448
68	0xbedb0f28	-0.42785
69	0xbedd9168	-0.43275
70	0x3f1967c4	0.5992396
71	0xbc0d5070	-0.008625135
72	0x3e3f40a3	0.18677
73	0xbe897e13	-0.26854
74	0x3c043fa8	0.008071817
75	0xc005f6fd	-2.0932
76	0x3c73c91f	0.014879494
77	0xbecc1fc9	-0.39868
78	0x3e56238e	0.20912
79	0xbf0ea7f0	-0.55725
80	0x406267c2	3.5375829
81	0x3edd6398	0.43240047
82	0xbf74e26d	-0.95658
83	0xbec1797d	-0.37788
84	0x3dbf4314	0.09338966
85	0xbea7b0b4	-0.32752
86	0x3de2725c	0.110569686
87	0x3db4f590	0.088359
88	0x3e07c6c7	0.13259421
89	0xbe5d883c	-0.21634
90	0xbeafb15f	-0.3431501
91	0xbc51a4db	-0.012795652
92	0x3e4eb6c6	0.2018691
93	0xbcfcf80e	-0.03088
94	0xbe49f40a	-0.19722
95	0x3da881e4	0.082279
96	0xbdc13554	-0.09434
97	0xbe85cee0	-0.26134396
98	0xbdda4760	-0.10658145
99	0xbe855864	-0.26044
100	0xba8f1e16	-0.0010919
101	0x3c446eda	0.01198932
102	0xbdd2b97b	-0.10289284
103	0xbf0a584f	-0.54041
104	0x3f4e2449	0.80524117
105	0xbefce1c6	-0.49391
106	0xbea6d9be	-0.32588
107	0xbd14d68c	-0.03633742
108	0xbe74024b	-0.23829
109	0x3ed4ce9c	0.4156388
110	0xbf1b46dc	-0.60655
111	0x3f75315a	0.9577843
112	0xbf1863d0	-0.595273
113	0x3e4ac98e	0.1980345
114	0x3f94575a	1.1589158
115	0x3f34c18e	0.7060784
116	0x3f08b466	0.53400266
117	0x3e9c1f82	0.3049279
118	0xbce9adf9	-0.02852534
119	0xbfadf3b6	-1.359
120	0xbec24f22	-0.37951
121	0x3e2a1015	0.16607697
122	0x3f1e3771	0.61803347
123	0x3ef4d876	0.47821397
124	0x3e948d29	0.29013947
125	0xc00b3d08	-2.1756
126	0xbfa902de	-1.3204
127	0x3ec81c75	0.3908421
128	0x3fc7d519	1.5611907
129	0xbfd47ae1	-1.66
130	0x406bf174	3.6866121
131	0x3f3dc19e	0.7412356
132	0xbf4dec81	-0.80439
133	0x3e0ae8d0	0.13565373
134	0xbeafc7a4	-0.34332
135	0x3cb3ed09	0.021963613
136	0x3e32b8e0	0.17453337
137	0x3d019ef9	0.03164575
138	0x3f27aad9	0.6549507
139	0xbf3cad58	-0.73702
140	0xbead5164	-0.3385116
141	0x3d2ee7e7	0.042701628
142	0xbe1b8bac	-0.1519
143	0x3f6f5871	0.93494326
144	0x3e91d47b	0.28482422
145	0x3dc2605e	0.09491037
146	0x3ec51146	0.3848974
147	0xbee9f7f9	-0.45697
148	0xbddc70b8	-0.10763687
149	0x3f8d70a6	1.1050003
150	0x3e4de9d3	0.20108728
151	0x3e02127d	0.12702365
152	0xbeef6556	-0.46757
153	0xbe9ef35e	-0.3104505
154	0x3f824799	1.01781
155	0x3f51c39e	0.81939113
156	0xbf07f23d	-0.53104
157	0xbe866e44	-0.26256
158	0x3def2210	0.11676419
159	0x3e29fa63	0.16599421
160	0xbe7f1173	-0.24909
161	0xbee23a2a	-0.44185
162	0xbf0c8f44	-0.54906106
163	0x3f00e8aa	0.5035502
164	0x3db9e5b4	0.090770155
165	0xbedce1c6	-0.43141
166	0xbcffd60f	-0.03123
167	0x3e3a2a91	0.181803
168	0xbf480885	-0.78138
169	0xbe4e50c6	-0.20148
170	0xbdc77a2d	-0.097401
171	0xbbd80da6	-0.006593424
172	0xbf1e4cd7	-0.61836
173	0xbe3d7b20	-0.18504
174	0xbe99b900	-0.30023956
175	0xc0102a99	-2.2526
176	0xbe64912a	-0.22321
177	0x3ece7310	0.4032216
178	0x3e9e116e	0.30872673
179	0x3d85353b	0.065042935
180	0x40682dd3	3.627797
181	0xbf36b1c4	-0.71365
182	0xbf2b8cfc	-0.67012
183	0x3e1fda64	0.15610653
184	0x3df8bc6e	0.12145315
185	0x3e30cbeb	0.17265289
186	0x3e537bc6	0.20652685
187	0x3e47acbb	0.19499485
188	0x3ee6978c	0.45037496
189	0xbee396d1	-0.44451
190	0xbe937aed	-0.28804722
191	0x3e9361f7	0.2878568
192	0xbf249470	-0.64289
193	0x3cc5c572	0.024142
194	0xbd2108c4	-0.039315
195	0xbe854f37	-0.26037
196	0x3e095f73	0.13415317
197	0xbe5abcc6	-0.21361074
198	0x3e90556f	0.2819018
199	0x3e37e910	0.1796
200	0x3dcdb30b	0.10043915
201	0x3c47821d	0.0121770175
202	0xbda815e4	-0.082073
203	0xbf3dcf03	-0.74144
204	0x3f3fcbab	0.7492015
205	0xbef7707a	-0.48328
206	0xbe9ec41e	-0.31009
207	0x3ee53d12	0.44773155
208	0xbf7cb146	-0.98708
209	0x3a21e46c	0.00061757
210	0xbe31e66f	-0.1737306
211	0x3f309746	0.68980825
212	0xbf8a339c	-1.0797
213	0xbf03bcd3	-0.5146
214	0x3fc21c57	1.5164899
215	0x3f09013c	0.5351751
216	0x3e1a999a	0.15097657
217	0x3f249dca	0.64303267
218	0xbe002ba9	-0.12516655
219	0xbf3a0c4a	-0.72675
220	0xbf3dbca9	-0.74116
221	0x3fc8af2a	1.5678456
222	0x3f39db47	0.72600216
223	0x3e4f865e	0.20266101
224	0x404d19e3	3.204705
225	0xc0247c85	-2.5701
226	0xbfad182b	-1.3523
227	0x3f1df3fd	0.6170042
228	0x3f8a5172	1.0806105
229	0xbf97c1be	-1.1856
230	0x408830d0	4.2559586
231	0x3f1d597d	0.61464673
232	0xbf3ab2c0	-0.72929
233	0x3e0590d4	0.13043529
234	0xbe85eb31	-0.26156
235	0xbeb19503	-0.34684
236	0x3ee1b5fb	0.44084153
237	0x3f482743	0.7818491
238	0x3f1bcb48	0.6085706
239	0xbe895571	-0.26823
240	0xbe9d6171	-0.30738404
241	0xbd4ee384	-0.050509945
242	0xbe8fd9fd	-0.28096
243	0x3f191632	0.5979949
244	0x3d70981b	0.05873881
245	0x3e0d5971	0.1380365
246	0xbe19db23	-0.15025
247	0xbf133b10	-0.57512
248	0xbe888e37	-0.26671
249	0x3f78d58d	0.9720085
250	0x3dc91d9b	0.098201
251	0x3e8f0a32	0.27937466
252	0xbd127d80	-0.035764217
253	0xbe6fbb5f	-0.2341132
254	0x3e87bbc6	0.26510447
255	0xbf22e925	-0.63637

sequential/dense/MatMul f4 [25, 50]
0	0x39881d93	0.00025961976
1	0xb9156661	-0.00014247886
2	0x38093fa0	3.27226e-05
3	0xb78ce7a8	-1.6797174e-05
4	0xb9175aa5	-0.0001443425
5	0xb86f2442	-5.7015808e-05
6	0xb8c5348f	-9.403482e-05
7	0x38d498d0	0.00010137411
8	0xb9096182	-0.00013101663
9	0x38cddcd2	9.816293e-05
10	0xb91b7808	-0.00014826667
11	0xb8c52e1e	-9.402282e-05
12	0xb8f9886a	-0.00011898654
13	0xb9847646	-0.00025265123
14	0x39846080	0.000252489
15	0xb931cc62	-0.00016956174
16	0xb9080988	-0.00012973521
17	0xb7a8b084	-2.0109357e-05
18	0x39d910de	0.00041402032
19	0x39619b97	0.00021515634
20	0xb7da9050	-2.6054826e-05
21	0x391faa7d	0.00015226933
22	0x37d65084	2.5548281e-05
23	0x3906206d	0.00012791315
24	0xb81b58e6	-3.7037673e-05
25	0x38b0d2e2	8.431614e-05
26	0xb7885cb0	-1.6255624e-05
27	0x39276c08	0.00015966606
28	0x3976b19d	0.00023526554
29	0xb91705a4	-0.00014402583
30	0x394a99d2	0.00019321524
31	0xb8e5c6ce	-0.00010956601
32	0xb7f7b968	-2.9531031e-05
33	0x380a13c0	3.2920158e-05
34	0xb82863ea	-4.0147374e-05
35	0x38f0a2d7	0.00011474423
36	0x3852b818	5.0239352e-05
37	0x388ec1b8	6.8071706e-05
38	0xb99e5fdb	-0.00030207526
39	0xb95912f6	-0.00020701796
40	0x39009eda	0.00012266208
41	0xb8edab6a	-0.00011332969
42	0x386d91a0	5.6640827e-05
43	0xb94ae306	-0.00019348794
44	0xb8002ef0	-3.0561292e-05
45	0xb8b7ab18	-8.757989e-05
46	0x390c4c2f	0.00013379821
47	0x391a66ac	0.00014724833
48	0x38b59350	8.658192e-05
49	0xb90390f4	-0.00012547133
50	0x398180b9	0.00024700703
51	0xba50ab72	-0.00079601177
52	0xbdf0d81b	-0.11759969
53	0xbd8d4642	-0.06898166
54	0x38b44034	8.5950276e-05
55	0xb6fba700	-7.4998243e-06
56	0xb8da8d80	-0.000104214065
57	0x39044c9e	0.00012617043
58	0xba2666ba	-0.0006347705
59	0x39439550	0.00018652272
60	0xb908a58e	-0.00013031645
61	0xb7f11a20	-2.8741604e-05
62	0xbde8c749	-0.113661356
63	0x39b33eb2	0.00034188252
64	0xb6b16cc0	-5.2876712e-06
65	0xb94463b8	-0.00018729165
66	0x39f522b8	0.0004675591
67	0xb9f9ab0a	-0.00047620415
68	0xba8b8424	-0.0010644239
69	0xb84ecb86	-4.9303773e-05
70	0xb9a1f34f	-0.00030889592
71	0x3a3b21d5	0.0007138525
72	0xb7c35d20	-2.3289176e-05
73	0xba25864e	-0.00063142634
74	0x3e36af1c	0.17840236
75	0xbe460165	-0.1933647
76	0xba93d195	-0.001127767
77	0x39ca88c4	0.0003863034
78	0xb9a418c0	-0.00031298958
79	0xb9bead93	-0.00036368947
80	0x3b15f038	0.0022878777
81	0x3940b647	0.0001837845
82	0xb86da6e8	-5.6660647e-05
83	0xb9edbeda	-0.00045346358
84	0xb910220e	-0.00013745597
85	0x39654d26	0.00021867882
86	0x3980c22d	0.00024558735
87	0x3a0adc36	0.0005297096
88	0x397ee3b4	0.00024308154
89	0x390f3e7a	0.00013660817
90	0xbef52995	-0.47883287
91	0x38573412	5.130849e-05
92	0xbaa368c3	-0.0012467135
93	0x38eb64ca	0.00011224447
94	0xb79808c0	-1.8123887e-05
95	0xb9598b32	-0.00020746587
96	0x39848e6a	0.0002528311
97	0xbbd9bdf6	-0.0066449596
98	0x39044a43	0.00012616166
99	0x38c9af52	9.617083e-05
100	0x38167250	3.586925e-05
101	0x388daa9e	6.755184e-05
102	0xb901db14	-0.00012384012
103	0x399cd418	0.0002991266
104	0x38a910ee	8.0617014e-05
105	0x38fa2732	0.0001192823
106	0xb9385985	-0.00017580956
107	0xb9259f12	-0.00015794885
108	0xb886b276	-6.422859e-05
109	0x38a4c0d8	7.856049e-05
110	0xb89456c1	-7.073349e-05
111	0x39a38077	0.00031185496
112	0x3919dd91	0.00014673757
113	0x393d34a2	0.00018044052
114	0x37432b1c	1.1632943e-05
115	0x39b85347	0.0003515726
116	0xb8f0658a	-0.00011463005
117	0x38a1e437	7.7195866e-05
118	0x3714ead8	8.876166e-06
119	0xb92bc229	-0.00016380161
120	0x3872876e	5.7823425e-05
121	0x39507dea	0.00019883332
122	0xb8065500	-3.2027252e-05
123	0xb97d8683	-0.0002417807
124	0x37d56de7	2.5442756e-05
125	0xb97d8dc2	-0.00024180769
126	0xb9007cc2	-0.00012253507
127	0xb90f310b	-0.00013655813
128	0xb95a53fd	-0.00020821388
129	0xb95b93f2	-0.00020940581
130	0x380269d9	3.1092994e-05
131	0x398eab1f	0.00027211846
132	0x33ec5800	1.10056135e-07
133	0x37bcbae1	2.2498369e-05
134	0x38c686c0	9.466475e-05
135	0x392ab8cb	0.00016281304
136	0xb8492621	-4.7957645e-05
137	0x398f098a	0.00027282193
138	0xb9563ebf	-0.00020432005
139	0x3958ec57	0.00020687409
140	0x393b7f94	0.00017881236
141	0x38b22a66	8.495599e-05
142	0x394c01df	0.00019455653
143	0xb8faa42a	-0.00011951507
144	0x39336152	0.00017107025
145	0xb9577147	-0.00020546197
146	0x3907bae1	0.00012944221
147	0x390b9652	0.00013312072
148	0x3960cb9f	0.0002143816
149	0x37b58dce	2.1642914e-05
150	0xb704acee	-7.908076e-06
151	0x3b0170f1	0.0019751156
152	0x3d912fb5	0.070891775
153	0x3c967967	0.018368436
154	0x3a0a98c3	0.00052870455
155	0xb751eabc	-1.2512024e-05
156	0x3a08ae68	0.0005213977
157	0x3a27e26a	0.0006404283
158	0x3a473ea9	0.00076005846
159	0x393d91d9	0.00018078777
160	0x395be52a	0.00020970838
161	0x38ddece6	0.00010582227
162	0x3b5ef6fb	0.0034021724
163	0xb990d8e9	-0.0002762743
164	0x39330ac4	0.00017074781
165	0x3a80c5d2	0.000982458
166	0x39cd6962	0.00039179163
167	0x39ea217a	0.000446569
168	0x3aabb867	0.0013101221
169	0x39a3286f	0.00031119908
170	0x39cc8055	0.00039005527
171	0xb935cd20	-0.0001733792
172	0x39a66ced	0.00031743143
173	0x3aa1dd80	0.0012349337
174	0xbd5e3e20	-0.054258466
175	0x3da4a78a	0.08039768
176	0x39c388ce	0.00037295226
177	0x398683e9	0.00025656752
178	0x3a99457a	0.0011693679
179	0x3970c564	0.00022961717
180	0xbb2a0385	-0.002594204
181	0x391235d1	0.00013943693
182	0x390fd4c4	0.00013716804
183	0x38710244	5.7460988e-05
184	0x39e3b2fa	0.00043430162
185	0x397971a1	0.0002378882
186	0x3a1fdb37	0.0006098034
187	0x3a0a1fd0	0.00052690227
188	0xb965eb80	-0.00021926872
189	0x39ff81bd	0.00048734053
190	0x3dc83bac	0.097770065
191	0x38be2db8	9.068422e-05
192	0xb8ac55ab	-8.217556e-05
193	0x3a323658	0.0006798259
194	0x3904e634	0.00012674258
195	0x38fd0303	0.00012064541
196	0x3a17f6ab	0.0005796949
197	0x39d6ef94	0.0004099576
198	0xb8559df0	-5.0930248e-05
199	0x39e09a6e	0.00042839668
200	0xbb19ece7	-0.0023487152
201	0xbdb9741a	-0.09055348
202	0xbe6a5cfb	-0.22887032
203	0xbea746cc	-0.326712
204	0xbb17b49b	-0.002314842
205	0xbafbe752	-0.0019218719
206	0xbae98838	-0.0017817086
207	0xbb1a2fa5	-0.0023526934
208	0xbb653db6	-0.003497941
209	0xba8836a8	-0.0010392265
210	0xbb107258	-0.002204081
211	0xbb1c5fcb	-0.0023860808
212	0xbe47325c	-0.19452804
213	0xbb009dd0	-0.0019625314
214	0xbaab3e39	-0.0013064808
215	0xbafe2eb1	-0.0019392577
216	0xbae46881	-0.0017426164
217	0xbb10ea24	-0.0022112215
218	0xbb671916	-0.0035262755
219	0xbab0147f	-0.0013433843
220	0xbb548406	-0.0032427325
221	0x3ddb8c1c	0.10720083
222	0xbb3bd3e0	-0.0028660223
223	0xbb55d46a	-0.003262783
224	0x3e94fab5	0.29097524
225	0xbea47400	-0.3211975
226	0xba413bb8	-0.00073712645
227	0xbab0c90a	-0.0013487649
228	0xbb088718	-0.0020832475
229	0xba4fb7cb	-0.00079238106
230	0x3d8def3a	0.069303945
231	0xbb3268a2	-0.002722301
232	0xba9b00fb	-0.0011825854
233	0xbb0a89f3	-0.0021139353
234	0xbb0ac9ca	-0.0021177405
235	0xbb0150b7	-0.0019731948
236	0xbb35fcb7	-0.0027769038
237	0xba87857a	-0.0010339462
238	0xbad0a21e	-0.0015917455
239	0xb885e6c8	-6.3849206e-05
240	0xbeba27e1	-0.3635855
241	0xbaa2af00	-0.0012411773
242	0xbb415d0a	-0.0029504918
243	0xbb2b7191	-0.002616022
244	0xbaad0bf0	-0.001320241
245	0xbb36c1c3	-0.0027886487
246	0xbae5ec66	-0.0017541766
247	0xbe18b8f3	-0.14914303
248	0xbb0d042b	-0.0021517377
249	0xbabf88d8	-0.0014612926
250	0x39c4dfa6	0.00037550664
251	0x392040dc	0.00015282951
252	0xb8b36a8e	-8.5552325e-05
253	0x39dc543c	0.0004202443
254	0x39854745	0.00025420837
255	0xb8df24ce	-0.00010640324

sequential/dense_1/MatMul f4 [2, 25]
0	0xbd5df710	-0.054190695
1	0x3f51130a	0.81669676
2	0xbd90230f	-0.07037937
3	0xbf31a5d7	-0.69393677
4	0x3fb7d8dc	1.4363055
5	0xbe1ad84c	-0.15121573
6	0xbeb8255b	-0.35966
7	0xbdf9a935	-0.12190477
8	0xbe4c15a5	-0.19930132
9	0xbfac971f	-1.3483618
10	0x3fa6be21	1.3026773
11	0x3f811436	1.0084293
12	0xbeb5f1f8	-0.3553617
13	0x3fc0c113	1.5058922
14	0xbed823ab	-0.42214713
15	0x3dfac55a	0.12244673
16	0x3c9cbb83	0.019132381
17	0xbe3b343a	-0.18281642
18	0xbe898af4	-0.26863825
19	0x3faabe3a	1.3339303
20	0xbe349166	-0.1763359
21	0xbe1f8166	-0.15576705
22	0xbf61ef5e	-0.8825587
23	0xbe8f59ee	-0.27998298
24	0xbe0ec26d	-0.13941355
25	0x3d577aab	0.05260722
26	0xbf9277ce	-1.1442811
27	0x3e22363d	0.15841003
28	0x3f226ce4	0.63447404
29	0xbfa47e9e	-1.285114
30	0x3e843caa	0.25827533
31	0xbcb8fa7e	-0.022580381
32	0x3d99aa83	0.07503226
33	0x3c9688d3	0.01837579
34	0x3fc22f2d	1.5170647
35	0xbf84a430	-1.0362606
36	0xbf99eb07	-1.202485
37	0x3e84be4e	0.2592644
38	0xbfae5fb4	-1.3622956
39	0x3e35fe70	0.17772841
40	0x3e631743	0.22176842
41	0x3e4a59c7	0.1976081
42	0x3e85f880	0.26166153
43	0xbd172023	-0.036895882
44	0xbfb4d4c5	-1.4127432
45	0x3eddf1cb	0.43348536
46	0x3dc7037d	0.09717462
47	0x3f716f2e	0.9431027
48	0x3e3bb9f7	0.18332659
49	0x3e72f740	0.23727131
