15-6-20/18-6/_SMS_classifier__android.tflite (tflite, 501780 bytes, 4 tensors)

sequential/dense/BiasAdd/ReadVariableOp/resource f4 [25]
000000 e4 91 c8 3e 69 3a bc 3e e0 f8 91 3e c8 59 8c 3e
       0.39173806 0.36763313 0.2851019 0.27412248
000010 a3 c1 83 3e ac 63 77 3e 23 1a 5c 3e f4 c2 ae 3d
       0.2573367 0.24159116 0.21494345 0.08533278
000020 c9 ef 6a 3e 70 31 7d 3e ac 3d 29 3e be 08 f6 3e
       0.22943033 0.2472589 0.16527432 0.48053545
000030 42 4d 89 3e 80 d6 63 3d ed 3f cc 3e 1c 61 3b 3e
       0.26816756 0.055624485 0.39892522 0.18298763
000040 cd ec a8 3d 0f 2c e0 3e 08 3c 8e 3e e4 76 6b 3e
       0.08248291 0.43783614 0.27780175 0.22994572
000050 16 46 c2 3d 7c c3 a1 3d c5 b9 6e 3e 66 80 82 3e
       0.09486024 0.07898614 0.23313053 0.25488585
000060 36 f8 8e 3e
       0.27923745

sequential/dense_1/BiasAdd/ReadVariableOp/resource f4 [2]
000000 ca 6e ee 3d 66 f9 20 bd
       0.11642225 -0.039300345

sequential/dense/MatMul f4 [25, 5000]
000000 fb 93 35 3d 90 2e 9b bc e1 9a d1 bc 82 b1 39 3c
       0.04433058 -0.018943101 -0.025586547 0.011333825
000010 63 cb d4 3c eb a6 fb 3b 9b a1 65 3d 1b cb 28 3d
       0.025975889 0.0076798103 0.056062322 0.04120932
000020 69 04 98 bc ee 64 0e bd 2f 2b 59 bc aa a6 b3 bc
       -0.01855679 -0.034764223 -0.013254925 -0.021930058
000030 75 e4 04 3d c0 37 7c 3b 24 96 58 3b 07 3f 98 bd
       0.032444436 0.0038485378 0.0033048475 -0.074338965
000040 f5 34 09 3d 18 37 49 3d 9a 65 a0 bc a3 6b ba bc
       0.03349777 0.049124807 -0.019579697 -0.022756403
000050 ec 4c 13 3c 23 bd 83 b9 6b cb 57 3c 26 60 94 bc
       0.008990508 -0.00025127185 0.013171057 -0.018112253
000060 70 a6 30 3d ac 86 ac 3c f1 04 af 3d d3 58 41 3d
       0.043127477 0.02106031 0.085458644 0.04720385
000070 41 77 bb bc 74 54 bd bc 0a ea cf 3a 0c 02 86 3c
       -0.022884013 -0.02311156 0.0015862596 0.016358398
000080 e7 53 00 bc b2 46 a1 3d d9 2a 1a 3d 20 8c 7a bc
       -0.007832504 0.07874812 0.03763852 -0.0152921975
000090 c4 39 4c bc cd f8 1d 3b 06 64 09 bc d9 0f 53 3d
       -0.012464944 0.0024104596 -0.008385664 0.051528785
0000a0 95 6e 26 3d 64 0b a4 bc 63 55 98 3d 1b 76 09 3d
       0.040632803 -0.020024963 0.07438161 0.0335599
0000b0 4d 1d 83 3d 55 b8 9e 3c a5 ae a4 3c d6 cc 87 bc
       0.06402073 0.019375006 0.020102808 -0.016577166
0000c0 68 26 c6 3c b6 72 f9 3b 39 3f 9e ba 0c 74 82 3c
       0.024188235 0.0076125516 -0.0012073285 0.015924476
0000d0 39 db e8 3c db cf 42 bb 8c 68 2e bc 1a 7b 14 3d
       0.028424846 -0.0029725942 -0.010645043 0.03625021
0000e0 1c 92 4e 3d 63 13 ff bc 68 84 8e bb 50 01 6d 3b
       0.05043231 -0.031137174 -0.00434928 0.0036164112
0000f0 1e bb 1b bc 66 90 b4 3c df df a4 bc c6 9e 91 3c
       -0.009505061 0.02204151 -0.020126281 0.017775904
000100 ea 92 c3 3c c6 50 f4 3c 16 7c cb 3c 5b 3e 83 bc
       0.023873765 0.029823672 0.024839442 -0.016020944
000110 ee b3 2d 3d 79 5f f6 3c b3 1d 9a 3c 30 72 36 3d
       0.042407922 0.030074822 0.01881299 0.04454249
000120 29 b1 00 bd fa 2d b6 3d f7 eb 66 3c 5e ec 5e 3d
       -0.031418953 0.08895488 0.014094344 0.054424636
000130 73 f6 31 3d 20 9c 1e bc 2b 28 9b 3b 28 c8 25 bc
       0.043447923 -0.009680778 0.004735013 -0.010118522
000140 40 04 41 3d 59 17 ab 3b e5 24 b6 bd c5 5b d8 3b
       0.047123194 0.005221289 -0.08893756 0.0066027367
000150 63 0a 10 3d 72 1e a5 3c 81 0a 05 3d 9f ac 11 3c
       0.035166156 0.020156119 0.03248072 0.008891254
000160 c8 17 4f bc 0a 2f 18 bb a6 e2 eb 3c 36 78 0c bd
       -0.012639947 -0.0023221397 0.028794598 -0.03429433
000170 2a 8c 94 bc e3 0a bb bc b8 36 70 3c 0c 78 3c bc
       -0.018133242 -0.02283234 0.0146614835 -0.011503231
000180 55 1d 01 3d 16 02 ec ba 4c 69 93 3c 9e 6c 66 3c
       0.031522114 -0.0018005993 0.017994545 0.014063982
000190 f5 b4 d6 3c 65 64 29 3d bf 27 ce bb 22 bd cd bb
       0.026209334 0.04135551 -0.006291359 -0.00627865
0001a0 43 eb e7 3c 73 86 7c bc 87 70 bf bd da a5 9f 3c
       0.028310424 -0.015412915 -0.09347635 0.019488264
0001b0 70 f8 49 bc ab 6a 39 3d 32 93 07 3e 4e 23 b7 3d
       -0.0123272985 0.045267742 0.13239744 0.08942281
0001c0 80 ff 2f 3d 78 8d 42 3d 56 64 8c 3d c8 43 0c 3d
       0.042968273 0.047498196 0.06855075 0.03424433
0001d0 43 9e cb bb 17 d0 3e bc e1 89 08 bb 54 74 d8 bc
       -0.0062139346 -0.011646292 -0.0020834135 -0.026422657
0001e0 bf 87 b9 3c f3 77 ad 3b 05 06 c7 bc 2a 91 ee 3c
       0.022647737 0.00529384 -0.024294863 0.029121954
0001f0 39 f4 11 3c 87 0b 10 3c dd fc f1 3b f8 93 d3 3c
       0.008908325 0.008791811 0.00738488 0.025827393
000200 24 de 18 3d 13 7f 91 bc 30 ab aa 3d 27 26 b6 bb
       0.037321225 -0.017760789 0.08333433 -0.0055587473
000210 24 2f f8 3c 25 dd bc 3c 98 fe 80 bc 33 dc 01 bd
       0.030295916 0.023054669 -0.0157464 -0.03170414
000220 b3 2d fe bc 74 15 da 3c 70 57 b9 3d 13 39 52 3d
       -0.03102765 0.026621558 0.090498805 0.05132396
000230 da a0 61 3d 2a 84 4e bc 5c 12 80 bc 0e a7 00 3e
       0.05508504 -0.012604753 -0.015633754 0.12563726
000240 8a 3c 4d 3d 9e b4 4e 3c ed 39 1f 39 ed 25 9d bc
       0.050106563 0.012616305 0.00015185 -0.019183123
000250 d0 b4 97 3b dc d5 57 3c d5 98 89 bc 69 7d 9e 3c
       0.004629709 0.013173547 -0.016796509 0.01934691
000260 f9 04 40 bd e5 49 d2 3c 01 f5 4f bc 10 0e 1f bb
       -0.046879742 0.025670001 -0.012692691 -0.0024269857
000270 1a 8d e5 3c 49 ba 6b bc db 5d b5 3d a5 af 0b bd
       0.028021384 -0.014387676 0.08855792 -0.034103055
000280 c9 74 d3 3c b1 10 96 3b 39 78 81 3c 5d fd 0a 3d
       0.025812523 0.0045796265 0.015804397 0.033933032
000290 24 52 67 3a 6e 7e 92 3d 91 13 ea 3b 03 46 ca 3c
       0.00088241906 0.07153021 0.007143446 0.024691587
0002a0 35 e8 82 3c 84 2a 32 3d b2 9d fc 3b f7 b4 b9 3c
       0.015979866 0.043497577 0.0077092284 0.022669299
0002b0 cd c4 6b 3d 66 b5 26 3d f1 fc 31 3d 62 9e 2e bb
       0.05756073 0.04070034 0.043454114 -0.0026644696
0002c0 05 da 0f bd ca 29 95 bd 02 41 b3 3c b2 e0 18 3d
       -0.03512003 -0.07283361 0.021881584 0.03732366
0002d0 6a 38 d7 3d 53 7d bc bc 72 60 c8 bd f4 d1 18 bb
       0.10508807 -0.023008978 -0.097840205 -0.0023318501
0002e0 4d 16 bc 3c 67 b6 db 3c 41 59 87 bc 5b ea 39 3d
       0.022959853 0.026820375 -0.016522052 0.045389514
0002f0 44 91 0a 3d 81 3c c9 bc d2 0d 30 bc 52 2c 07 3b
       0.033829942 -0.024564983 -0.0107454825 0.0020625782
000300 9d 5b cd 3b 69 4a e7 3c 90 8a 85 39 3f 06 a1 3b
       0.0062670247 0.028233724 0.00025470974 0.0049140747
000310 88 3d 81 3d c7 39 d4 3c d6 a1 da 3c eb 55 ee ba
       0.06310564 0.025906457 0.026688498 -0.0018183565
000320 02 fb 29 3c e8 df 04 3d bc 84 49 3b 1a 2c ac bb
       0.010374786 0.032440096 0.0030749282 -0.0052542808
000330 98 11 30 3d c1 13 5a 3d b6 da b0 3c 51 a2 f5 3c
       0.04298553 0.053241495 0.021588665 0.029984625
000340 f7 7c a6 bc d8 54 0d 3d ae a9 1d bd 2d 72 f6 3c
       -0.02032326 0.03450474 -0.038491897 0.03008374
000350 23 24 19 3b e7 3f e9 3c a8 48 1f 3c 32 b1 94 39
       0.0023367486 0.028472854 0.009721912 0.0002836078
000360 ec 9a b8 bb c0 ee 98 3a 29 b6 b3 bc 56 2d af 3c
       -0.0056337025 0.0011667833 -0.021937447 0.021383923
000370 3a 61 17 bc 14 14 db 3c 13 dc a7 3c 4d 2f 8a 3c
       -0.009239489 0.026742972 0.020490682 0.016868258
000380 62 9d ca bc 71 3d b4 3c 8b 6d 7d 3d b3 40 68 3c
       -0.02473325 0.022001954 0.061872046 0.014175582
000390 41 01 cc 3c ff 50 2e bd 13 c4 75 bc c2 ef c0 bc
       0.024902942 -0.042557713 -0.015000361 -0.023551825
0003a0 47 74 2d bb b9 0e 14 3d ae cb 94 3d 5e 9c 30 3d
       -0.0026467012 0.036146853 0.07265411 0.043117873
0003b0 c2 c4 3d 3a 39 ac 5b 3d 0f b9 a3 bd 8b 60 fa 3b
       0.0007239097 0.05363104 -0.079942815 0.0076409033
0003c0 26 e7 68 3c 82 34 22 3d e8 4b 88 3d db d9 2e 3c
       0.014215266 0.039600857 0.06655103 0.010672058
0003d0 7b 06 90 3a 9e e1 dc 3d 70 49 e6 3c ea ca 20 bc
       0.001098826 0.107852206 0.02811119 -0.0098140035
0003e0 c1 d8 6b 3d 7a f7 2a 3d 13 c0 1b 3d a0 7a 0e 3c
       0.05757976 0.04173992 0.038024973 0.008696228
0003f0 9b ea 26 bc 9a 13 94 bc 94 b5 b6 bb 1f ad e1 bc
       -0.01018777 -0.018075753 -0.005575845 -0.02754837

sequential/dense_1/MatMul f4 [2, 25]
000000 ca 14 3f bf 13 20 48 be 44 56 fa be 0f 99 ba be
       -0.74641097 -0.19543485 -0.4889394 -0.364449
000010 e8 21 83 be b3 89 fa be b8 17 0c bf 92 7b 23 3f
       -0.25611806 -0.4893318 -0.5472369 0.6386043
000020 de 3e 1a bf 58 e8 1f bf 2d 5b a6 3e 67 8b 20 bf
       -0.6025218 -0.62463903 0.32491437 -0.6271271
000030 f3 b1 c6 be 0a 7d e3 3d ae fc fc be fa 76 08 bf
       -0.3880764 0.11107834 -0.4941153 -0.53306544
000040 f5 0e 8e 3e 41 78 22 bd 13 92 0d bf ac 10 36 bf
       0.27745786 -0.039665464 -0.55301017 -0.7111919
000050 9d c1 10 3f 30 2c 15 3f ed 68 d0 be 24 9c 87 be
       0.5654543 0.5827055 -0.40705052 -0.26486313
000060 6b 8d eb be c1 e5 2f bd d1 07 02 3f 9e 81 ee 3e
       -0.4600633 -0.04294372 0.50793177 0.46583265
000070 af e8 a4 3e b1 1c f9 3e 8e 36 0a 3f 17 dc 2a 3f
       0.32208773 0.48654702 0.53989494 0.6674208
000080 6c 3b e2 be 40 0c 2d 3e 5b ee 91 3e 25 d4 85 be
       -0.4418596 0.16899204 0.28502163 -0.26138416
000090 f5 f9 0b 3e e7 29 35 3f b0 57 29 bf aa 8b 7e 3e
       0.1366957 0.7076706 -0.66149426 0.24857965
0000a0 84 e7 f8 3e 7f 53 09 bf cd 88 1b 3f 37 46 00 3f
       0.48614132 -0.5364303 0.60755616 0.5010714
0000b0 6b 97 e9 3e 8d 84 86 be 72 09 d9 be e0 84 13 3f
       0.45623335 -0.26273003 -0.4239002 0.57624626
0000c0 72 c0 04 3f f7 db be 3e
       0.5185615 0.37277195
